SHL/model/SPLm.pt (torch, 85211 bytes, 72 tensors)

get_machines.0.attn_l f4 [1, 1, 8]
000000 d2 ae 2b 3f d8 14 02 bf 4b 15 0a 3c 5e e9 29 3d
       0.6706363 -0.50813055 0.008427928 0.041482322
000010 d2 5f a5 bc 9c ba 15 bf 00 19 e4 3f 2d a4 31 be
       -0.020187292 -0.5848787 1.7820129 -0.17347784

get_machines.0.attn_r f4 [1, 1, 8]
000000 46 75 dc 3e 0d 1f 35 be 43 b7 81 be 64 e8 f3 be
       0.43058223 -0.17687626 -0.2533513 -0.47638237
000010 ed fd 70 3f c0 8a 6e bf 66 d1 02 3e 26 76 53 bf
       0.9413746 -0.93180466 0.12775192 -0.82602155

get_machines.0.attn_e f4 [1, 1, 8]
000000 4c b4 be 3e ea 58 c8 3d 97 93 8b 3f 38 1e c7 be
       0.3724693 0.09782584 1.0904416 -0.38890243
000010 b3 db b5 3e 70 79 d7 be a4 28 c8 be a6 63 d5 3e
       0.3551918 -0.42084837 -0.39093506 0.41677588

get_machines.0.fc_src.weight f4 [8, 6]
000000 e3 5f a7 3e 44 aa 14 3f 07 ed 39 bd f4 1f 80 3d
       0.32690343 0.58072305 -0.045392063 0.062560946
000010 ed 1c 10 3f a5 f0 d5 3e 26 d5 03 3e 05 e8 48 bf
       0.5629414 0.4178516 0.12874278 -0.78479034
000020 9c f0 97 bc 10 dc 22 3f 0e 8c eb be a6 1b 95 3b
       -0.018547349 0.6361704 -0.4600529 0.004550415
000030 b5 2c 61 3e 88 c9 28 3b 4b 89 46 bf 31 2d 20 3f
       0.2198971 0.0025754888 -0.7755324 0.62568957
000040 db fa 95 bf 7d 47 ad 3e 3b dd 12 bf b9 bc f0 be
       -1.171718 0.33843604 -0.5736882 -0.47018984
000050 5c 6b 5a be 91 cd 42 be 36 0a f1 3e 9d 6e fe 3e
       -0.21330017 -0.1902373 0.47078103 0.49693766
000060 43 b6 3c 3f d9 dd c2 3e 4f 61 04 bf 15 a0 07 bf
       0.7371561 0.3805988 -0.5171098 -0.5297864
000070 ac c9 88 bd 18 ea d4 3c 92 10 0e bf e0 55 d3 3d
       -0.06679091 0.02599053 -0.55494034 0.10319114
000080 5c b9 be be aa b2 cc 3e 2a f9 58 be 86 84 b6 be
       -0.37250793 0.3998006 -0.21188799 -0.35647982
000090 28 67 b5 3e 1e f3 22 bf 8c 4a b6 bf f8 71 86 3f
       0.35430264 -0.6365222 -1.42415 1.050353
0000a0 e7 06 2c 3f 1f 30 1c bf 0d ed 7b 3f 1f 28 2f bf
       0.6719803 -0.61010927 0.98408586 -0.68420595
0000b0 fe 17 71 3f b2 dd 27 3e 28 d3 24 bf c9 a6 bd be
       0.94177234 0.16393164 -0.643847 -0.3704131

get_machines.0.fc_dst.weight f4 [8, 3]
000000 02 63 1b 3e ab 69 87 be bb 94 42 3f b9 84 16 3f
       0.15174487 -0.26447806 0.76008195 0.5879627
000010 7d 8a 6e 3d 8c 6f 53 3d f4 0c 19 bf 45 04 d6 3e
       0.05823754 0.05162005 -0.5978539 0.41800132
000020 0a 1f 2c be 9d d5 c0 bd e6 98 5d be 9d 7e 3c 3e
       -0.16808715 -0.094157435 -0.21640357 0.18407674
000030 fc f8 f3 be 93 ba 1a bf 69 0a c2 bd 41 56 5c bf
       -0.47650898 -0.6044094 -0.09474642 -0.86069113
000040 21 8a f0 be 2d 49 9b be fd e9 b9 3e 60 c6 70 3f
       -0.46980384 -0.30329266 0.3631133 0.94052696
000050 0d c9 fa be af 8b 8a be a6 6f af bd ff 2c b2 3e
       -0.48981515 -0.27059695 -0.08566217 0.34799954

get_machines.0.fc_edge.weight f4 [8, 1]
000000 82 17 36 3e d5 8f 95 bd 7f d1 23 be ea 40 ca 3e
       0.17782405 -0.073028244 -0.15997885 0.3950265
000010 e2 aa b1 3d b6 e8 20 bf 2e f5 86 3f 34 bd 93 3e
       0.086751714 -0.6285509 1.0543573 0.28855288

get_machines.1.attn_l f4 [1, 1, 8]
000000 bb 7e 33 be 9c 9f a5 3c bb 3c 57 be a5 d8 30 bf
       -0.17528813 0.02021771 -0.2101926 -0.69080573
000010 4a 45 11 3e d8 46 36 bf bf 8b 33 3f a0 8f 80 bf
       0.14186588 -0.7120185 0.7013511 -1.0043831

get_machines.1.attn_r f4 [1, 1, 8]
000000 8c 1e 1a bf db b8 f1 bc 3a 0c af bd 7e bf 9e 3f
       -0.6020286 -0.029507091 -0.08547254 1.2402189
000010 52 af 24 bf 12 f7 fe bd 77 1d 59 bf 2d 37 2d 3f
       -0.6433002 -0.12449469 -0.84810585 0.67662317

get_machines.1.attn_e f4 [1, 1, 8]
000000 98 71 ae be 96 96 7c be 33 fe a4 bf 94 ec 7c bf
       -0.3407104 -0.24666819 -1.2890075 -0.9879849
000010 c3 7e 85 be 47 15 8c 3d 01 5d 6a be 49 81 9c 3e
       -0.26073274 0.06839996 -0.2288704 0.30567387

get_machines.1.fc_src.weight f4 [8, 8]
000000 e5 31 9e 3f 12 4e 2c bf ed 52 0e be db ba fe be
       1.2358977 -0.67306626 -0.13898821 -0.49751934
000010 8e 28 1f bf 99 6e 23 3f d1 e2 fe bd 40 9a 01 be
       -0.62171257 0.63840634 -0.124456055 -0.12656498
000020 2e 60 c3 3e 6d fc 7d bf 10 39 e9 bd fe c7 9a 3e
       0.38159317 -0.99213296 -0.11387837 0.30230707
000030 e9 14 08 3f 4a 21 8c be 87 ce 1b bf be c3 e6 bd
       0.53156906 -0.27369148 -0.6086201 -0.112678036
000040 f3 3c 4d be 8a eb da 3d 0d 9f 04 3f 97 12 d5 3e
       -0.20042782 0.10689457 0.5180519 0.41615745
000050 aa ab 01 bf 61 cb 40 3e 4a 3f 08 be 30 66 13 3f
       -0.50652564 0.18827583 -0.13305393 0.575778
000060 79 61 dc be ff dd 6a be c3 d5 43 be 4f 99 7b bd
       -0.43043116 -0.22936247 -0.19124512 -0.061425503
000070 f4 56 05 3f 4c 13 be 3f 51 ec 33 be a6 e5 9b 3e
       0.52085805 1.4849639 -0.17570616 0.30448645
000080 ff 6c ec 3e 12 6d 1b 3e 50 2e ed 3e 7b f7 41 be
       0.46176907 0.15178326 0.46324396 -0.18942063
000090 80 56 8a be 26 7a af be 3a 00 a3 3d 66 1e 6b bd
       -0.2701912 -0.3427288 0.079590276 -0.057402037
0000a0 a7 07 86 be 81 63 fd be bf 9c 19 3f 6a a6 b6 3f
       -0.26177713 -0.49489978 0.600048 1.4269536
0000b0 c6 67 10 be 72 4c 78 bf 56 29 bc 3f a4 78 66 bb
       -0.14102086 -0.96991646 1.4700115 -0.0035167122
0000c0 dd c6 0e 3f 80 85 e6 3e 59 4d 9f be 43 a1 27 3e
       0.5577219 0.45023727 -0.311137 0.1637011
0000d0 f8 e5 54 3e 4a b8 85 be c4 96 8c be 23 e3 22 be
       0.20790851 -0.26117164 -0.27458775 -0.15906958
0000e0 17 41 a9 be a4 00 93 be 46 04 aa be 1e 8b a8 3f
       -0.33057472 -0.28711426 -0.33206385 1.3167455
0000f0 07 e4 24 bf 2a 38 09 3f ff 30 d8 be e3 f3 f6 be
       -0.6441044 0.53601325 -0.4222488 -0.48232946

get_machines.1.fc_dst.weight f4 [8, 8]
000000 17 88 3d 3f eb b5 04 3d 0e 4d 5f bf 75 bb a1 3f
       0.7403578 0.032400053 -0.8722695 1.2635332
000010 42 30 48 bf a1 94 f8 3d 80 2b 99 be b1 02 db be
       -0.78198636 0.12137724 -0.29916 -0.4277549
000020 ea 14 e4 bc 8a a8 9d be b6 51 5c 3e 33 dc 98 be
       -0.027842004 -0.30792648 0.21515545 -0.298555
000030 42 fb 2a be 76 51 f1 be d8 13 92 be 44 04 39 be
       -0.1669741 -0.47132462 -0.28530765 -0.18068033
000040 67 cd c1 3e d2 6f 01 bf 0a 28 46 bf 39 7e 76 be
       0.37852022 -0.5056125 -0.77404845 -0.24071588
000050 8b c4 ab be d7 6b 83 be 78 40 9c be b4 15 c1 3e
       -0.33548388 -0.25668213 -0.30517936 0.3771187
000060 a8 70 9a be 5f eb 19 bf d3 7d 84 3e 9b 57 d2 bb
       -0.30164075 -0.6012477 0.25877246 -0.006419135
000070 dd db 03 3e d0 39 ea 3e 1a 7e 53 3f b5 28 19 3f
       0.1287684 0.45747232 0.8261429 0.5982774
000080 d6 ac 85 3e ad e5 c6 3e db 70 9a be a8 b2 d5 be
       0.26108426 0.38847104 -0.30164227 -0.41737866
000090 6a 75 e1 be 1c b8 e0 3d 23 de 89 be 89 1b f4 be
       -0.44034892 0.10972616 -0.2692729 -0.47677258
0000a0 b0 14 3a 3f 41 e1 03 be 2b 41 35 bf 83 ee ab be
       0.72687817 -0.12878896 -0.70802563 -0.33580408
0000b0 69 ae 88 bd 24 78 24 3f 60 73 43 3e 33 f5 9a be
       -0.06673891 0.6424582 0.19086981 -0.30265197
0000c0 40 c0 0c bf 69 db 19 bf 44 94 b0 3e ea db 9a 3e
       -0.5498085 -0.6010042 0.34488118 0.30245906
0000d0 3d f9 57 3e 3e 72 48 3d 5f e5 1f bf 7c b9 46 bf
       0.2109117 0.048937075 -0.6245937 -0.77626777
0000e0 37 bd fd be 5d 91 52 3e 9f 8b af 3e 3d a0 d8 bd
       -0.49558422 0.20563264 0.3428621 -0.10577438
0000f0 ca fd 54 3e 26 46 77 be e8 ad 09 3e 99 48 0f bf
       0.20799938 -0.24147853 0.13445246 -0.5597015

get_machines.1.fc_edge.weight f4 [8, 1]
000000 b5 11 1b 3f cc e9 6f 3e 04 97 d1 3e ba db 03 3d
       0.60573894 0.2342903 0.40935528 0.03219197
000010 91 ed da bc 9e b1 e6 be 1d 1f 38 bf 48 ef c3 3e
       -0.026724609 -0.45057386 -0.71922475 0.38268495

get_operations.0.relation_pri f4 [2, 2]
000000 c6 a7 8c 3f cc a9 7d 3f 15 a1 84 3f e7 54 95 3f
       1.09887 0.99087214 1.0361658 1.1666535

get_operations.0.k_linear.weight f4 [8, 8]
000000 e7 0a 9a 3d a3 0a 39 be 3f f7 25 be ff ce 59 3e
       0.07521611 -0.18070464 -0.16207598 0.21270369
000010 b5 d7 f3 bb 64 9b 9d be 01 86 17 be 48 a2 8b bc
       -0.0074414858 -0.30782616 -0.14797212 -0.017045155
000020 35 c2 82 3e f8 b4 21 bf 9a cb 22 be 60 db 35 3e
       0.25538793 -0.6316676 -0.1589798 0.17759466
000030 6f 0b af be 92 72 23 be 3e 70 92 3e 10 2c 38 3c
       -0.3418841 -0.15961674 0.2860126 0.011240974
000040 d1 a5 10 3e 6e bf 73 be 94 01 52 3d 88 f3 85 be
       0.14125754 -0.23803493 0.051271036 -0.26162362
000050 af 9a 89 3f 76 33 e2 bd aa 42 a6 3e de 7e 4e 3e
       1.0750331 -0.11044972 0.32472736 0.20165583
000060 f7 fb d6 be 03 9b c1 3e fc 82 a4 be bf ba 42 3e
       -0.4198911 0.37813577 -0.32131183 0.1901655
000070 66 1c 13 3f de fa 93 3d 01 de 3d be 11 04 c8 3e
       0.5746521 0.072255835 -0.18541719 0.39065602
000080 7a 38 62 3d a4 b2 13 3f ab 05 06 bf 4c f5 e5 be
       0.05522964 0.5769446 -0.523524 -0.4491371
000090 f6 2d c4 bd b9 e8 fe be 40 94 85 3b cd b2 3f 3d
       -0.09579079 -0.49786928 0.0040765107 0.046801377
0000a0 f0 ea 06 bb 7b f6 8d be 0a 51 d8 3e bc 6d 2b 3f
       -0.002058681 -0.27727112 0.42249328 0.66964316
0000b0 e7 ce 04 3f 91 47 c1 be 3b 3b f3 3e 1b 65 34 be
       0.5187821 -0.37749913 0.47506127 -0.17616694
0000c0 e1 a8 26 be 35 fb c9 3c a0 67 20 3f e5 4c f1 be
       -0.1627536 0.024655918 0.6265812 -0.47128978
0000d0 e3 58 11 bf e0 3a ce be 30 c8 b3 be 23 eb a5 be
       -0.56776255 -0.40279293 -0.35113668 -0.32405958
0000e0 91 2c 61 bb a6 98 03 3f ad 1f 2b bc 66 1d b6 bd
       -0.003435884 0.514048 -0.010444564 -0.08892326
0000f0 6f 82 64 be 7b 26 05 3e 17 f1 8c 3f 50 da 16 3f
       -0.22315381 0.1300296 1.1011075 0.5892687

get_operations.0.k_linear.bias f4 [8]
000000 d1 6d ba 3d e4 25 bd 3e 20 37 50 3e 02 0c dd bc
       0.09102977 0.3694297 0.20333529 -0.026983265
000010 e9 78 2f 3d fb 5f 92 be aa 53 87 be 94 14 7e 3e
       0.04283992 -0.28588852 -0.26431018 0.24812537

get_operations.0.k_linear_dst.weight f4 [8, 6]
000000 42 63 7f bf d3 2c a3 be 23 8b f8 3e ee fb e9 3e
       -0.9976083 -0.31870136 0.48543653 0.4570002
000010 2a b9 61 be c8 ed 14 bf 2e 4e 50 3e f9 31 b1 be
       -0.2204329 -0.58175325 0.20342323 -0.3460844
000020 fe b6 ca be 39 5f 22 be 9e 28 13 be fe b3 33 3e
       -0.39592737 -0.15856637 -0.14370963 0.1754913
000030 fc e2 5d 3d 8a f7 2a bf 6e 05 de bc 22 be 03 3e
       0.054171547 -0.66783965 -0.027102198 0.12865499
000040 37 c6 ca be 80 b5 8e 3d 66 92 e7 3b 1e 3e 70 be
       -0.3960435 0.06968212 0.0070670126 -0.23461196
000050 a0 7c 90 3e a6 ad bb be db 79 24 3f 2c 76 b4 be
       0.2822008 -0.3665592 0.64248437 -0.35246408
000060 aa 8b 07 bd 15 6a 06 3d 98 bd 80 be c5 16 09 bd
       -0.03309218 0.03281601 -0.2514465 -0.03346898
000070 41 79 1e bf 8e ab 10 bf ee e0 1f be 21 ee a2 bc
       -0.6190377 -0.5651177 -0.15613148 -0.01988894
000080 c2 de 1e 3e 67 d3 23 3e 5a f4 ec be 1c f4 ee 3e
       0.15514663 0.15998612 -0.46280175 0.46670616
000090 9a ce 15 3f 9a e7 79 3e 9c 39 6a bd 6a ea 55 3d
       0.58518374 0.24404755 -0.057183847 0.052225508
0000a0 3f 6a 9b 3e f1 69 3b bf 30 2f 3b 3e 31 f6 84 3d
       0.30354497 -0.7320853 0.1827972 0.0649227
0000b0 59 93 cc 3e d7 43 92 be b9 d1 00 bd 1b 6a 32 3f
       0.39956167 -0.28567383 -0.031450007 0.69693154

get_operations.0.k_linear_dst.bias f4 [8]
000000 ce 9d 98 3e 93 4c fb bd 7c 75 04 3f 90 ff c4 be
       0.29807895 -0.12270465 0.51741767 -0.3847623
000010 4a 73 4f be 29 53 dd bd d9 02 f0 be 9e 47 8a 3e
       -0.20258823 -0.10806877 -0.46877173 0.27007765

get_operations.0.k_linear_edge.weight f4 [8, 1]
000000 ed 07 c4 be 8f e5 8d 3e 97 97 5e bf be 0f 73 bf
       -0.38287297 0.27714202 -0.8695006 -0.94945896
000010 d7 9d bf 3e f7 04 a4 3e ee 7a f3 3e 25 73 b0 3e
       0.3742511 0.32035038 0.47554725 0.34462848

get_operations.0.k_linear_edge.bias f4 [8]
000000 4e 0b 79 bf 85 13 58 3f 1b 3d 09 3f a7 ff 3c 3f
       -0.97282875 0.84404784 0.53608865 0.73827595
000010 20 91 49 3f f5 42 91 be 13 64 1c 3f 3f cd 99 be
       0.7873707 -0.28371397 0.610902 -0.30039403

get_operations.0.q_linear.weight f4 [8, 6]
000000 1f b8 1d 3e 7f 79 c5 bd 0b e0 8a bd 5a 2b ff 3d
       0.15402268 -0.09642314 -0.06781014 0.124594405
000010 f9 83 83 be c0 60 82 3e 1e 53 58 bd 4d 89 38 3e
       -0.25686625 0.2546444 -0.05281364 0.18021126
000020 55 27 b7 be fb b8 7f be 1f c1 a1 3e 7c 0f 44 be
       -0.35772195 -0.24972908 0.31592652 -0.19146532
000030 b2 e5 e1 bd ea 2f 4a bf 6b 21 8b be 7a 33 36 bf
       -0.11030139 -0.7897936 -0.27173933 -0.71172297
000040 9a 64 a3 3d f0 09 e5 be 6b 92 95 3e 80 fc 08 3f
       0.079781726 -0.44734144 0.2921327 0.53510284
000050 39 e2 70 3c d2 d0 e8 bc 1f 2e 65 3d 34 93 ba 3d
       0.014702373 -0.028419886 0.055952188 0.09110108
000060 6a d8 53 3f 8e c6 76 bd 1e f8 30 bf e3 c6 8f 3d
       0.82752097 -0.06024795 -0.69128597 0.070203565
000070 71 77 05 be 53 12 ec 3e 06 7c a3 be 18 93 06 3f
       -0.13033845 0.4610773 -0.3193056 0.525682
000080 f3 51 54 be 1a 3f 0c 3f d6 ce 41 be 53 13 0f bf
       -0.20734386 0.54783785 -0.18926558 -0.5588886
000090 65 53 c1 3e 56 43 32 3f 6d 75 e9 3d f9 7a 2d 3e
       0.37758937 0.69633996 0.1139935 0.16941442
0000a0 c0 26 82 3e 79 84 a2 3e d8 f6 1b 3d 0c 35 d6 3e
       0.2542019 0.31741694 0.038077205 0.41837347
0000b0 53 5d af be 04 b1 41 be db b1 25 be fe 89 12 bf
       -0.34250888 -0.18915182 -0.16181128 -0.5724181

get_operations.0.q_linear.bias f4 [8]
000000 c6 d9 9e 3d 2e 75 a3 be d0 0a a9 3c 6d 00 35 3e
       0.07756381 -0.31925339 0.020635039 0.17675944
000010 7d 57 75 3e a7 86 56 bc c0 43 aa 3e a6 f5 3b 3d
       0.23959155 -0.013093627 0.33254814 0.045888565

get_operations.0.v_linear.weight f4 [8, 8]
000000 e2 25 16 bf f3 ee 9e 3e d1 7c a0 3e 5c 7c c9 bd
       -0.58651555 0.3104168 0.31345227 -0.09838173
000010 18 0f dc bd f0 ad f6 be 1c e2 43 bf 2a 3c df 3e
       -0.107450664 -0.4817958 -0.7651689 0.4360059
000020 b4 6c 72 be b6 20 04 3f d3 f1 18 bf b1 9b 15 bf
       -0.2367428 0.5161241 -0.59743994 -0.5844069
000030 11 10 9d be 8c 10 04 3f 42 c4 87 3d 3d 29 68 bd
       -0.3067632 0.5158775 0.0662923 -0.056679953
000040 aa a2 15 be 5a c1 f1 3e 81 a1 89 be a7 f6 ad 3e
       -0.14612833 0.47217828 -0.2688103 0.33977243
000050 6c ed 8c 3e 69 f5 23 3f 58 d0 c9 be d1 cf 13 3f
       0.2752489 0.6404634 -0.39416766 0.5773898
000060 4a 94 8d 3c 42 6c 30 be 99 61 99 3e 80 11 24 be
       0.017282624 -0.17228797 0.29957274 -0.160223
000070 88 85 c1 be bf 4b 78 be 6b f2 8c 3e 8e 22 f2 be
       -0.3779719 -0.24247645 0.275287 -0.47291988
000080 e1 44 85 3e 24 67 1b be 70 fc 97 be bb 25 de 3e
       0.26029113 -0.15176064 -0.29684782 0.4338816
000090 6c e5 6b 3f b7 94 24 be 24 9e 0f bf 2c b6 e4 3d
       0.92146945 -0.16072355 -0.5610068 0.11167559
0000a0 7e 7e b7 3e a9 b4 7d be 58 ab 1a 3e 06 19 8b 3d
       0.35838693 -0.24775948 0.15104425 0.06791882
0000b0 7a 01 2b 3f 99 46 1b 3e d7 8c 4d 3e 21 27 c5 3e
       0.6679913 0.1516365 0.20073257 0.38506415
0000c0 11 dd 5c 3e 61 e4 ae 3e 55 8b 42 be fa 9e e0 be
       0.21568705 0.34158614 -0.18998463 -0.4387129
0000d0 e6 b1 25 bc 53 c7 85 bb b4 f1 f9 3c 2f b2 9f bd
       -0.010113215 -0.004082599 0.03051076 -0.07797658
0000e0 f7 2b 64 bf a9 d4 28 3f 16 40 c0 3d bb 58 d6 3e
       -0.89129585 0.65949494 0.093872234 0.4186457
0000f0 20 55 22 be 97 22 5e 3c c0 9e 0a 3e 60 f4 36 3f
       -0.15852785 0.013558052 0.13537121 0.71466637

get_operations.0.v_linear.bias f4 [8]
000000 60 cb 8a 3c d6 a3 8f bd 2a 48 16 be 45 97 b5 bc
       0.01694268 -0.07013671 -0.14675966 -0.022166857
000010 b0 1e 76 be d2 a0 6a 3d f8 d4 87 3e 2d 26 9a 3e
       -0.24035144 0.057282276 0.2652967 0.3010725

get_operations.0.v_linear_dst.weight f4 [8, 6]
000000 5a 67 1d 3f 8f a9 71 3e 12 0f 97 bd 07 1e 8a 3e
       0.61485827 0.23599838 -0.07375921 0.26976034
000010 6a 05 00 bf 34 7f a3 3e 24 1a 85 3d 05 2c 9a 3f
       -0.5000826 0.31932986 0.064991266 1.2044684
000020 5d ab 21 3e ba 79 b5 3e 68 49 0a 3e db ec 49 3f
       0.15788026 0.35444432 0.13504565 0.7887704
000030 3a 3d 60 be 9e 00 00 3f 04 34 a3 3d ab 99 59 3d
       -0.21898356 0.5000094 0.079689056 0.053125065
000040 82 47 9e 3e 60 1b 7e be cc d4 60 be b9 37 af 3d
       0.3091393 -0.2481513 -0.21956176 0.0855555
000050 37 70 95 bd c6 3f c3 bc 74 a1 0c bf 32 6d 7d be
       -0.07296794 -0.02383412 -0.5493386 -0.24748686
000060 9b fb bf bd a0 98 5a 3f a0 4e 35 3d 0c f1 d0 be
       -0.09374162 0.8538914 0.044264436 -0.40808904
000070 db c0 06 3e fc 56 b3 be 1e f2 43 be cd 65 0b bf
       0.13159506 -0.350273 -0.19135329 -0.5445221
000080 ac 77 3e bf 2a e3 92 3d 96 65 d4 3d 2e 21 a1 bd
       -0.74401355 0.07172234 0.103709385 -0.07867657
000090 c9 3d 81 be 1d c5 10 3d e6 b8 65 bd cc 1e 02 3f
       -0.2524245 0.035344232 -0.056084536 0.5082824
0000a0 b2 54 19 3f 28 4b f3 3e 12 bb 86 3e ee 9f cf be
       0.5989486 0.47518277 0.26314598 -0.40551704
0000b0 dd 24 14 3f 66 ba 7a be 70 4a 4a be 49 7b 02 3f
       0.5786875 -0.24485168 -0.19754958 0.5096937

get_operations.0.v_linear_dst.bias f4 [8]
000000 23 63 50 be 23 6d 15 3d e5 4b 9a be c4 d3 9e be
       -0.20350318 0.036481034 -0.30136028 -0.3102094
000010 53 f4 19 be 51 de 4f 3e cd 68 27 be 96 62 fa 3c
       -0.15034609 0.2029965 -0.16348572 0.030564588

get_operations.0.a_linear.weight f4 [8, 8]
000000 a6 43 03 bf a1 eb 4a be 89 a9 b3 bd be b6 bc 3e
       -0.512751 -0.19816448 -0.08772571 0.3685817
000010 8a 23 83 3e 4f e2 27 3e 0f 7f a7 be 26 f3 80 be
       0.25613052 0.16394924 -0.32714126 -0.25185508
000020 84 b2 aa 3e 22 b4 9a bd ab 97 cc be 92 e9 fe 3e
       0.33339322 -0.07553889 -0.39959463 0.49787575
000030 2e f8 54 3e 2c f7 eb 3d 1b 55 67 be ba a8 2d 3e
       0.20797798 0.11521754 -0.22591059 0.16958895
000040 09 7b f7 be a9 63 57 3e 2b bd b9 3e 5d c2 29 be
       -0.48336056 0.21034111 0.36277136 -0.1657805
000050 08 c5 8e 3e f4 99 0a bf 44 83 89 3e d1 11 1f bf
       0.27884698 -0.54141164 0.2685796 -0.6213656
000060 b4 50 e0 3e 23 dd fb 3e af dd 3e be f8 7e 8d be
       0.43811572 0.4919215 -0.18639253 -0.27635932
000070 73 59 06 3f f7 94 40 3e 4a 89 93 bd fb 03 31 be
       0.5248024 0.18806826 -0.0720392 -0.17286675
000080 5f e1 d5 3e 51 60 ec 3d ac 31 48 bd f7 12 9b bd
       0.41773507 0.115418084 -0.048875496 -0.07571977
000090 02 40 f4 be 5e 3e d8 3e 4f db 71 be 3f b2 d1 3d
       -0.47705084 0.42235082 -0.23618816 0.10239076
0000a0 35 3c 18 3f 0a d9 d7 3d 9d f4 15 be e1 82 64 3e
       0.5946687 0.10539444 -0.14644094 0.22315551
0000b0 44 ca 42 be 36 b7 8b 3e 42 48 0a bd 21 35 39 3b
       -0.1902247 0.27288216 -0.033760317 0.0028260427
0000c0 54 d0 97 3e f2 89 e6 3e e5 31 b9 bd 01 70 47 bc
       0.2965113 0.4502712 -0.0904272 -0.0121727
0000d0 d4 2e 3d 3d 7d 78 69 3e 34 a9 13 3f b4 09 81 be
       0.046187237 0.22799869 0.5768006 -0.25202715
0000e0 7c 42 a6 be 59 87 ca be 32 44 13 3f 03 9e 1f bf
       -0.324726 -0.39556387 0.5752593 -0.6235048
0000f0 74 b9 7d 3d a4 b9 79 bd 4f ae 8e 3f 73 26 09 3d
       0.06194444 -0.060968056 1.1146945 0.033483934

get_operations.0.a_linear.bias f4 [8]
000000 2d 81 46 3e fa 12 20 be 78 4b f2 3d e2 19 c9 3c
       0.19385214 -0.15632239 0.11830801 0.024548475
000010 16 15 79 bd 41 ad 34 be 63 40 81 bd 96 60 7e 3e
       -0.060811125 -0.17644216 -0.06311109 0.24841532

get_operations.0.norms.weight f4 [8]
000000 00 00 80 3f 00 00 80 3f 00 00 80 3f 00 00 80 3f
       1.0 1.0 1.0 1.0
000010 00 00 80 3f 00 00 80 3f 00 00 80 3f 00 00 80 3f
       1.0 1.0 1.0 1.0

get_operations.0.norms.bias f4 [8]
000000 00 00 00 00 00 00 00 00 00 00 00 00 00 00 00 00
       0.0 0.0 0.0 0.0
000010 00 00 00 00 00 00 00 00 00 00 00 00 00 00 00 00
       0.0 0.0 0.0 0.0

get_operations.0.mid_linear.weight f4 [8, 8]
000000 ae 96 48 3e f8 64 92 bc 66 ee 8a bd 2e 4d 23 3e
       0.1958873 -0.017870411 -0.06783752 0.1594741
000010 32 45 89 3d 94 b7 0e 3e 37 fe 44 3e 31 67 8b be
       0.06702651 0.13937217 0.192376 -0.27227166
000020 5f 1f 71 3d 5b 18 a1 3e fb ab 42 3e 38 c8 db 3c
       0.05886781 0.31463894 0.19010918 0.02682887
000030 d2 1c 82 be 2e ca ed 3d f1 18 1c be 09 25 13 3d
       -0.25412613 0.11610828 -0.1524389 0.03592399
000040 6c 3e f9 bd d2 4e 8f ba d2 68 83 3e 53 99 dc 3d
       -0.12170109 -0.0010933524 0.2566591 0.10771432
000050 c3 75 12 3d 47 c2 b5 bb 94 0c 10 be 94 3e 21 be
       0.035756838 -0.0055468413 -0.14067298 -0.15746528
000060 07 22 1e be 14 04 39 3e 63 25 0d 3e e8 29 a3 be
       -0.15442668 0.18067962 0.13783793 -0.3186791
000070 c2 b5 b7 bc d2 3d 1d be b3 25 7c 3e 76 c6 27 3e
       -0.022425536 -0.15355614 0.24623756 0.163843
000080 1c 73 81 3e ad 40 5b 3e aa 07 64 bd 96 24 07 be
       0.25283134 0.2141139 -0.05567137 -0.1319755
000090 70 5c 61 be 72 66 88 3e 0f 31 89 be 55 f7 46 3d
       -0.22007918 0.2664066 -0.2679524 0.048575718
0000a0 d9 2f 83 be a3 95 21 bd a3 0a 59 bd a6 00 a6 be
       -0.25622442 -0.039449345 -0.05298866 -0.3242237
0000b0 e0 69 2b be d4 9d 65 3d 4c 6f a1 3e 94 2d 5c 3e
       -0.16739607 0.05605872 0.31530225 0.21501762
0000c0 fe 78 b1 be fe 46 a6 3e 05 24 82 bd c2 47 6f be
       -0.34662622 0.32476038 -0.063545264 -0.23367217
0000d0 f5 5f 22 3e 20 1d b5 bc 15 73 7c bd 5f a8 a8 3e
       0.15856917 -0.022108614 -0.06163319 0.32940957
0000e0 ea 79 90 bd 89 1e 18 3d 1e 95 51 bd f4 dc e2 3d
       -0.07054503 0.037138496 -0.0511676 0.110773
0000f0 4a d7 18 be 3d 95 c7 3c 1c f4 2b be 74 ac 27 be
       -0.14925876 0.024363155 -0.16792339 -0.1637438

get_operations.0.mid_linear.bias f4 [8]
000000 2f 8b 73 3e a4 e0 bf bd 63 e9 03 3e 14 62 35 3e
       0.23783563 -0.09369019 0.12881999 0.17713195
000010 37 0c 90 be f5 a8 3d bd d8 2e 81 be c5 dd 82 be
       -0.2813432 -0.046303708 -0.2523105 -0.25559822

get_operations.0.out_linear.weight f4 [8, 8]
000000 1e 93 90 3e 1e 57 f0 bd 41 9f a4 3d fd 14 62 be
       0.28237242 -0.11735366 0.08038188 -0.22078319
000010 f6 f3 96 3d 14 8f 46 bb 7a f9 89 3e 44 8d 07 bb
       0.073707506 -0.0030297684 0.26948148 -0.0020683566
000020 a8 b0 04 be 45 52 41 bd aa 27 8b 3d 44 ce 09 3b
       -0.12958014 -0.0471976 0.06794675 0.0021027485
000030 a7 89 ae be fb b9 b2 be 54 98 aa 3b 48 3e 22 3e
       -0.34089395 -0.34907517 0.005206147 0.15844071
000040 f5 b0 02 3e b5 b7 68 be ed 8a 56 3e 4c a6 38 3e
       0.12762816 -0.22726329 0.20951433 0.18032187
000050 5c 15 32 bd 2e b8 9f 3e 87 45 20 3e 1e 95 7b 3e
       -0.0434774 0.31195205 0.15651523 0.24568602
000060 22 0e 84 3e 60 1a 56 be 5b 0b ad bc d6 38 96 be
       0.25792032 -0.20908499 -0.021123579 -0.29340237
000070 e6 ea 14 3e 2b 31 17 be 1c 65 9d bc 5f 74 57 3e
       0.14542732 -0.1476485 -0.019213252 0.21040486
000080 2a d1 1f be ea 86 b4 be 52 1a a9 3e 9f a9 45 3d
       -0.15607134 -0.3525918 0.33027893 0.048257466
000090 86 2a 94 3e 81 e0 00 be 06 a6 fb 3c 31 ff 72 be
       0.28938693 -0.12585641 0.030718815 -0.2373016
0000a0 58 76 e9 3c b4 58 96 be 39 4a 9c 3c 69 cc 4b be
       0.028498814 -0.2936455 0.01907836 -0.19902195
0000b0 7d 7b 9a 3d e1 0b a5 3e 8b bf f9 bd b0 6b 7b 39
       0.07543085 0.32235625 -0.12194737 0.00023977342
0000c0 80 21 b5 3c ff b1 a8 be 2c 6b bd bd 6a da 81 3e
       0.0221107 -0.329483 -0.09248957 0.2536195
0000d0 a7 57 06 3e a2 72 c9 bd 01 5b 55 3d 43 84 8d 3b
       0.13119374 -0.098363176 0.05208874 0.0043187453
0000e0 ab 89 82 3e 90 c5 69 be 5c dc 91 3e 5c d3 a7 3e
       0.25495657 -0.2282927 0.28488433 0.32778442
0000f0 0e 8d 09 bd 66 8f 86 3e 45 e5 15 3d 2c 5e b4 bd
       -0.033581786 0.2628128 0.0365956 -0.08807024

get_operations.0.out_linear.bias f4 [8]
000000 86 59 b0 be 80 4b 83 be c7 5d 93 be 5d 62 f2 bd
       -0.344433 -0.2564354 -0.28782484 -0.118351676
000010 f4 67 4c be 45 01 11 3e 43 33 af be 1c 04 78 bd
       -0.1996153 0.1416064 -0.34218797 -0.060550794

get_operations.0.out_norm.weight f4 [8]
000000 00 00 80 3f 00 00 80 3f 00 00 80 3f 00 00 80 3f
       1.0 1.0 1.0 1.0
000010 00 00 80 3f 00 00 80 3f 00 00 80 3f 00 00 80 3f
       1.0 1.0 1.0 1.0

get_operations.0.out_norm.bias f4 [8]
000000 00 00 00 00 00 00 00 00 00 00 00 00 00 00 00 00
       0.0 0.0 0.0 0.0
000010 00 00 00 00 00 00 00 00 00 00 00 00 00 00 00 00
       0.0 0.0 0.0 0.0

get_operations.1.relation_pri f4 [2, 2]
000000 b6 4c 98 3f 1f 44 7f 3f e4 b3 82 3f 9f 9b 7f 3f
       1.189841 0.9971332 1.0211148 0.99846834

get_operations.1.k_linear.weight f4 [8, 8]
000000 00 fe 04 3e 69 33 f9 bd 0f ab ba 3e b8 fc 54 bd
       0.12987518 -0.12168009 0.36458632 -0.051998824
000010 13 b3 12 be 15 26 07 3e 08 86 ac be 6c 90 f7 3e
       -0.14326124 0.13198121 -0.33696008 0.48352373
000020 0a dd 48 3e e2 c3 28 3d 0f 4f f3 be 3b e6 f9 be
       0.1961557 0.041202433 -0.47521254 -0.48808464
000030 3c 4d 1c 3e 14 1c d8 3e eb ef a8 be 17 c0 bd bc
       0.15263838 0.42208922 -0.32995543 -0.023162885
000040 47 d2 62 3f 99 59 f9 3e 01 27 01 be 3e ee 4f bf
       0.8860211 0.4870117 -0.12612535 -0.81222904
000050 2b 44 cc 3e aa bc 42 3f 18 6f 25 3d f5 f4 ec 3e
       0.39895758 0.7606913 0.04038915 0.46280637
000060 42 88 3e bf 4e ec c9 3e b4 d0 25 bf d5 b3 00 bd
       -0.7442666 0.394381 -0.6477158 -0.0314215
000070 b5 cd 89 be 15 48 8f 3e 0c 1d 55 be 8b 2a 06 3e
       -0.26914755 0.27984682 -0.20811862 0.13102166
000080 bf 57 0b 3e 2d 67 18 be 38 45 e0 be fd 31 ac bc
       0.13607691 -0.14883108 -0.4380281 -0.02101993
000090 05 1a ce 3e 92 de e3 be 64 06 d8 be 3a ce 99 bb
       0.40254226 -0.44505745 -0.42192376 -0.0046937736
0000a0 dc 1d 23 be 18 96 ab be 9e 24 22 bf ae 17 b7 be
       -0.15929359 -0.3351295 -0.63337123 -0.35760254
0000b0 d9 9a ef 3e e1 02 45 3e 51 22 d4 3b 24 85 8f 3d
       0.46797827 0.1923938 0.0064738174 0.070078164
0000c0 6c 14 ae bb df a5 a6 3d d9 8b bc 3e f4 a6 a2 3e
       -0.005312493 0.08137106 0.36825445 0.31768
0000d0 01 db 68 bd dc ed f3 3d ed e7 c1 be a6 b4 82 be
       -0.056849483 0.119106025 -0.37872258 -0.2552845
0000e0 6e 11 a6 be ee 83 ce 3e bd da 45 3f c1 1c a6 be
       -0.32435173 0.4033503 0.77286893 -0.32443812
0000f0 60 6c ab bd 91 69 99 bd a0 86 b9 be 49 ba 25 bf
       -0.0837028 -0.07490838 -0.36235523 -0.64737374

get_operations.1.k_linear.bias f4 [8]
000000 a6 83 be 3e ce 6c 83 be 38 fb ae 3e ad 85 aa bd
       0.37209815 -0.2566895 0.3417604 -0.08326278
000010 db 4b 89 3e 6a c9 f7 3d a9 99 02 bb 07 2b 8b be
       0.26815686 0.120989636 -0.0019928014 -0.27181265

get_operations.1.k_linear_dst.weight f4 [8, 8]
000000 e1 42 da 3e 75 90 2d bd 2c 7b 36 be 0c 27 d2 3e
       0.4262915 -0.042374093 -0.17820424 0.41045415
000010 59 d0 e6 be 71 e0 be be 36 da 59 be 11 1c 28 be
       -0.45080832 -0.3728061 -0.21274647 -0.16416956
000020 26 39 67 be 53 7b 56 be 14 1b 7f bd c3 0b be bd
       -0.22580394 -0.20945482 -0.062281683 -0.09279587
000030 2c 2b 40 3e 5b 41 fd 3d 2b 34 05 bf ae ae f2 be
       0.18766469 0.12365981 -0.52032727 -0.47398895
000040 8e 85 43 3d a4 15 c1 bd 21 10 1c 3f 91 c2 91 bc
       0.04773479 -0.09427956 0.6096211 -0.017792972
000050 95 77 15 3e 52 27 cf 3e 49 2a 81 3e a9 6e 32 3d
       0.14596398 0.40459687 0.25227574 0.043562565
000060 d3 7b b2 be 73 c4 56 be 09 5f 30 3e b5 b5 c0 bd
       -0.34860095 -0.20973377 0.17223753 -0.09409658
000070 9d d4 97 be 01 a8 b3 3d 1e 5d e9 3e c7 17 de be
       -0.296544 0.087722786 0.45578855 -0.43377516
000080 80 5c f0 be bf fc 3d bf a1 cb a8 be 9d 6b 67 be
       -0.46945572 -0.74213785 -0.32967857 -0.22599645
000090 9c 59 3f 3e 24 06 8a 3d 61 b4 1c 3f 5d 2b 5e be
       0.18686527 0.067394525 0.61212736 -0.2169623
0000a0 e5 5e 7c bf da 7c 0c 3d 86 81 4a bd 38 d5 8e bc
       -0.985823 0.034298755 -0.04943993 -0.017435655
0000b0 70 fa d2 3e cb 27 31 bf 38 15 69 bd 95 60 6a 3e
       0.41206694 -0.69201344 -0.056905 0.22888406
0000c0 d4 b4 fb 3e 6d 84 72 be 12 78 18 be 5e 5c 48 bf
       0.49161398 -0.23683329 -0.14889553 -0.7826594
0000d0 c4 47 53 be 8e 4e 8d be 17 4f 04 3f 9f 03 1a bd
       -0.20632845 -0.27598995 0.5168318 -0.03760111
0000e0 a9 a4 8c be 52 cf 8c 3e db c2 b1 3f ac ea 2d bf
       -0.27469376 0.27501923 1.388759 -0.67936206
0000f0 5c 07 b4 3d 21 d7 cc be 0e 9f be be 15 1f 88 be
       0.08790466 -0.4000788 -0.37230724 -0.26586214

get_operations.1.k_linear_dst.bias f4 [8]
000000 ab 1b b8 be d9 73 a4 bd 11 33 a2 3d 67 1e 9a be
       -0.3595861 -0.08029909 0.079198964 -0.3010132
000010 04 3b b2 bd 52 27 90 3e e1 27 9e be 24 c7 9b 3e
       -0.087026626 0.28155 -0.308898 0.3042537

get_operations.1.k_linear_edge.weight f4 [8, 1]
000000 36 b4 14 3e aa d8 45 3e cd 38 0e 3e b9 ca a7 be
       0.1452187 0.19320932 0.13888855 -0.32771853
000010 4f c3 30 bf 57 39 41 bf e2 82 5a 3d ef 40 91 bd
       -0.6904802 -0.7547812 0.053347476 -0.07092463

get_operations.1.k_linear_edge.bias f4 [8]
000000 cb a2 9a be a8 6b 3a be da 79 92 3e c2 d7 3e 3f
       -0.30202326 -0.1820513 0.2860859 0.7454797
000010 1d bf 62 3f 12 60 2d bf 4f 8f aa 3e cf cb 39 3f
       0.88572866 -0.67724717 0.3331246 0.7257661

get_operations.1.q_linear.weight f4 [8, 8]
000000 33 c6 5c bd 1c d9 b2 be e3 56 58 3e 89 10 61 3e
       -0.053899955 -0.34931266 0.21126895 0.21978964
000010 08 81 86 be 14 34 e2 3d 0a 54 94 bd d8 61 80 be
       -0.26270318 0.11045089 -0.07242592 -0.2507465
000020 72 3f f4 be f5 a9 88 be dc 06 51 bf 4c 20 f8 3e
       -0.47704655 -0.26692167 -0.8165109 0.4846214
000030 35 af 80 bd dc c6 ee be 65 33 12 bd 81 df 52 3e
       -0.06283418 -0.46636093 -0.035693545 0.20593072
000040 0a d2 b7 3c 81 c1 f6 bb b7 ce e1 3e c8 c2 e1 be
       0.022439022 -0.0075303917 0.44103023 -0.4409392
000050 b4 56 3e 3e 0e ce ac 3e 08 81 10 3f e6 b6 01 3f
       0.18587762 0.33750957 0.56446886 0.50669706
000060 bc b5 ed 3e 28 c4 5a bd 96 78 9d be d6 e0 ca 3d
       0.46427715 -0.053409725 -0.30756062 0.09906165
000070 23 db 93 be d4 ed 7b be 55 e2 0e 3e 43 51 03 be
       -0.28878126 -0.24602443 0.13953526 -0.12823968
000080 5f 49 09 3e 48 f8 85 be 60 62 5c bf e9 2c ac be
       0.13406895 -0.26165986 -0.8608761 -0.33628014
000090 1a 81 f4 be fd d1 9d bd 91 d4 87 3e 1f 0a 97 be
       -0.47754747 -0.07706068 0.26529363 -0.2949991
0000a0 36 22 86 3e 0b c4 1f 3e 6a 99 01 be 64 30 33 3f
       0.26197976 0.15602128 -0.12656179 0.69995713
0000b0 50 1a ae be 55 78 a1 bd 13 ce ae bd f0 a4 2f bc
       -0.3400445 -0.0788428 -0.08535399 -0.0107204765
0000c0 3c 10 cf 3e 6a 72 a2 3e a5 fb 53 3e 24 a9 d0 3e
       0.40442073 0.31727916 0.20701464 0.40754044
0000d0 62 88 f8 3c 68 cd 13 be 84 2d d1 3e 2c 65 fb 3d
       0.03033847 -0.14433825 0.40855038 0.122751564
0000e0 ce 53 22 3f 3d f4 3c 3f a5 5f 48 3f ed 76 9d be
       0.63409126 0.7381018 0.7827094 -0.30754796
0000f0 40 d5 20 bf 4a 86 f6 be f6 26 61 3e 6d 8f a0 3d
       -0.62825394 -0.4814933 0.21987519 0.07839856

get_operations.1.q_linear.bias f4 [8]
000000 bb d8 f8 3b e7 1e f0 bd 93 29 ed bc 66 b6 4a 3d
       0.0075941957 -0.11724644 -0.028950488 0.049490355
000010 9b 6e 87 3e 70 46 90 3e 40 de 74 3e 7a 92 3e bd
       0.26451573 0.2817874 0.23912907 -0.04652641

get_operations.1.v_linear.weight f4 [8, 8]
000000 71 80 8b be ea 6f 87 3e b8 77 21 bf 94 87 10 3e
       -0.2724643 0.2645257 -0.630733 0.14114219
000010 12 6f 0a 3f 4d 43 b1 bc 82 fd 88 bf 5f 8d 38 be
       0.5407573 -0.021638537 -1.0702364 -0.18022679
000020 0a ba f3 3c 18 40 ab be 38 fa b7 be 6a e3 2d bd
       0.029751796 -0.33447337 -0.3593309 -0.042453207
000030 f4 14 00 3f 66 ac 97 3e de 5f 3b be 1c d1 48 3e
       0.5003197 0.29623717 -0.18298289 0.19611019
000040 0b 72 af bc 87 93 dc 3e 2b d7 68 3e 6f 46 16 bf
       -0.021416685 0.43081304 0.2273833 -0.58701223
000050 4d 1f 6e 3d 6f b1 e9 be c9 0a de 3e 4e ae c3 3e
       0.05813532 -0.45643184 0.43367603 0.3821892
000060 33 65 07 bf 7e cb b9 3d 19 c3 4a 3e fb a0 b9 3d
       -0.5288879 0.09072016 0.19800986 0.09063908
000070 b1 e2 94 3e 13 bd 5c bd 7d 1e c6 3d 22 b4 47 bf
       0.29079202 -0.053891253 0.09673784 -0.78009236
000080 11 08 14 be 8e 4c c3 be 19 83 26 3e ab 01 7f be
       -0.14456202 -0.38144344 0.16260947 -0.2490298
000090 e4 df b0 be 7b 73 7a 3e fa 01 7c be db 0b ff be
       -0.34545815 0.24458115 -0.24610129 -0.49813733
0000a0 0c 06 a5 be dd 41 87 3e 9b 98 bc bc ea a2 0d 3d
       -0.32231176 0.26417437 -0.023021987 0.034579195
0000b0 01 6e c9 3d 06 ab 2c 3d 88 b0 18 3d ca 80 e2 bd
       0.09835435 0.04215529 0.03727773 -0.11059721
0000c0 9e 23 01 be 9b b5 cf be 4e a9 7b 3e 1b 9e 0f 3e
       -0.12611243 -0.4056824 0.24576303 0.14025156
0000d0 ce ef 24 3f c6 4b 31 bd ba 23 16 3e a3 d0 79 be
       0.6442841 -0.043285154 0.14662066 -0.24395995
0000e0 4b ee cc be be cf c3 3b 5c fe bc 3e 8d 0e d2 be
       -0.40025553 0.0059756925 0.3691281 -0.41026726
0000f0 90 71 49 be 6d 1b 17 be 1a 3a 7d bf f7 c9 7d be
       -0.19672227 -0.14756556 -0.9891678 -0.24784075

get_operations.1.v_linear.bias f4 [8]
000000 61 c3 07 be b6 e6 9b bb 98 86 96 3e 92 dd 67 3e
       -0.13258125 -0.0047577275 0.29399562 0.22643116
000010 a8 7e 20 be b7 a3 96 3e 38 4f 9b bb 63 17 12 3e
       -0.15673316 0.2942178 -0.004739668 0.14266734

get_operations.1.v_linear_dst.weight f4 [8, 8]
000000 14 47 b9 3e d2 66 ec bb 60 26 a1 3e 35 31 b6 be
       0.3618704 -0.0072144056 0.3147459 -0.35584417
000010 ff 52 23 3c 44 bb 53 be de c4 88 3e 77 d4 1e 3f
       0.009968518 -0.20676905 0.26712698 0.62042946
000020 e1 67 29 3e aa 6f db bd 45 e3 aa 3e 3f c6 34 be
       0.16543533 -0.107146576 0.33376518 -0.1765375
000030 4c a1 06 3f 56 0d 79 be 39 f3 bc 3e ff 7b e4 3b
       0.5258987 -0.24321494 0.36904314 0.0069727893
000040 1c b1 87 be 96 c1 0b 3f 74 55 df 3e a7 d0 1f bf
       -0.2650231 0.54592264 0.43619883 -0.62427753
000050 77 aa f3 3c fb 4a 02 bd 2e 67 fb be a4 3c 52 3e
       0.02974437 -0.03180979 -0.49102157 0.20530945
000060 86 60 9a 3e cc 18 e1 3e d6 36 03 3d 6b ad bb 3e
       0.30151767 0.4396423 0.032034718 0.36655745
000070 e7 97 07 3f 65 c4 3f 3f ea 5c da 3d c0 7f d2 bc
       0.5296616 0.7490905 0.10662253 -0.025695682
000080 c6 8f 31 3f 26 0f 24 3e ab fe de be a4 77 1a 3e
       0.69360006 0.16021404 -0.4355367 0.15084702
000090 a8 f5 a3 3e e7 c0 cb 3e f5 ac 35 bd 86 54 8c be
       0.32023358 0.3979561 -0.044354398 -0.27408236
0000a0 11 39 26 bf 24 89 ab 3e 2e 0d 24 3f 76 92 20 be
       -0.64930826 0.33503067 0.6408261 -0.1568087
0000b0 32 65 b9 bd 49 f9 2d bf 92 98 5f be d2 38 bd bd
       -0.090525046 -0.67958504 -0.21835545 -0.09239353
0000c0 cf bc 9e 3e 79 74 d0 be 25 b6 5a 3d 56 d7 06 3e
       0.31003425 -0.40713862 0.053396363 0.13168082
0000d0 9c e4 f9 be 81 72 33 3d 04 04 49 be 75 e5 21 3e
       -0.48807228 0.04381037 -0.19630438 0.15810187
0000e0 5f 75 8a 3e 25 0c 23 3f bc 8a c5 bc e7 66 ef be
       0.27042672 0.63690406 -0.024114005 -0.46758196
0000f0 0e 5b 1f bf 22 8d 9c 3d 22 53 65 3f 11 31 21 bf
       -0.62248313 0.076441064 0.89579976 -0.62965494

get_operations.1.v_linear_dst.bias f4 [8]
000000 98 1b 41 bd d7 5f b5 3d ec 44 7a 3d 53 89 80 be
       -0.047145456 0.088561706 0.061100885 -0.2510477
000010 ad f2 2a be 11 57 6d be 2d 18 11 bb ed 2f 86 3e
       -0.16694136 -0.23177744 -0.0022139654 0.2620844

get_operations.1.a_linear.weight f4 [8, 8]
000000 81 d5 a0 3e 52 ba e9 3e 48 fc 40 be 37 bf d1 be
       0.3141289 0.45649964 -0.18846238 -0.40966198
000010 a6 de a1 be 5f db da bd e3 3f 0c 3f 89 fa 25 3f
       -0.3161518 -0.10686373 0.54784983 0.6483541
000020 c2 81 26 3e 72 7d c6 be 96 6f a5 3e ef 0a 06 3d
       0.16260436 -0.38767582 0.32311696 0.03272527
000030 92 12 a4 be 47 49 35 3c d1 bc 19 bf 8c 48 a3 be
       -0.32045418 0.011064834 -0.60053736 -0.31891286
000040 64 05 9b 3e aa 7b 78 3e 6a db 44 3e 2e 9a 0e 3d
       0.3027755 0.24265924 0.19224325 0.034815006
000050 32 30 44 be e0 31 e9 bd 1e 17 07 3f 76 e2 d8 be
       -0.1915901 -0.11386466 0.5276965 -0.42360276
000060 72 28 39 3e a0 ce 4e 3e fc d1 c5 be fa 6b 9b 3e
       0.18081835 0.20196009 -0.38636768 0.30355817
000070 c0 93 57 be a1 8d 84 3e 64 16 88 be 92 b0 62 3e
       -0.21052456 0.25889304 -0.26579583 0.22137669
000080 cd 29 34 bf c7 27 98 be 8c 1f 7f 3e 21 7e 2a be
       -0.7037628 -0.29717848 0.24914378 -0.16649677
000090 b0 f3 b9 3e e0 d6 7e 3f 03 27 52 3e e9 7a 85 be
       0.3631873 0.99546623 0.20522694 -0.26070336
0000a0 c7 94 9a be 73 1d 97 3e 9a 43 1b 3f f2 46 33 be
       -0.30191633 0.29514655 0.60650027 -0.17507532
0000b0 6b 96 25 3f 84 a4 6d bd 8f fc e3 3e a2 82 34 3e
       0.64682645 -0.058018222 0.44528624 0.17627957
0000c0 13 76 9a be 13 ea 8f 3e 3c 2f e5 bd 62 63 80 be
       -0.30168208 0.28108272 -0.1119065 -0.25075823
0000d0 87 7b 8b 3d 68 6e 3a 3f 3a 38 a6 be 0d 2c bf be
       0.0681067 0.72824717 -0.32464772 -0.37338296
0000e0 2e f3 02 3f 90 47 07 3e e1 71 d7 3e 4f f5 13 3f
       0.5115231 0.13210893 0.4207907 0.57796186
0000f0 49 a6 4b 3e 3d a7 36 bf db ea aa 3e e2 c0 b5 bd
       0.19887652 -0.71348935 0.33382306 -0.0887468

get_operations.1.a_linear.bias f4 [8]
000000 f4 18 25 3d 4d 7a 67 3e 07 1d 53 3e 2e 0f be bc
       0.040307 0.22605248 0.20616542 -0.023200598
000010 42 e3 e9 3b 51 38 42 be f0 89 7f 3e 2d 37 ab be
       0.007137687 -0.18966796 0.24954963 -0.33440533

get_operations.1.norms.weight f4 [8]
000000 00 00 80 3f 00 00 80 3f 00 00 80 3f 00 00 80 3f
       1.0 1.0 1.0 1.0
000010 00 00 80 3f 00 00 80 3f 00 00 80 3f 00 00 80 3f
       1.0 1.0 1.0 1.0

get_operations.1.norms.bias f4 [8]
000000 00 00 00 00 00 00 00 00 00 00 00 00 00 00 00 00
       0.0 0.0 0.0 0.0
000010 00 00 00 00 00 00 00 00 00 00 00 00 00 00 00 00
       0.0 0.0 0.0 0.0

get_operations.1.mid_linear.weight f4 [8, 8]
000000 c5 dc be 3d 85 6c 48 3e c4 78 34 3d 0d 16 b5 bc
       0.09319452 0.19572647 0.044060484 -0.022105241
000010 4e e3 65 3e 5f 2e 9f 3e c1 a6 b1 bd 92 b4 d6 bd
       0.22449991 0.31090066 -0.08674384 -0.1048366
000020 9d f5 8f be 94 de 43 3d 8a e9 a8 be 03 eb 05 bd
       -0.28117076 0.04781969 -0.32990676 -0.032694828
000030 12 94 b3 3e d9 b1 48 3e 0e 7b 14 3e 93 48 a4 3e
       0.35073906 0.19599093 0.14500067 0.3208662
000040 b2 16 19 be be 54 a4 3d 9f e6 f7 bd 6b 31 9e 39
       -0.14950064 0.08023976 -0.12104534 0.00030172928
000050 58 36 ab 3d 62 70 18 3d 7e bf 42 bd d1 7e 3d 3e
       0.083599746 0.03721655 -0.047545902 0.18505408
000060 19 e4 a1 3e 10 27 1d bd 58 02 ae be 1e cf 9a be
       0.31619337 -0.03836733 -0.33986163 -0.30236143
000070 90 f5 94 bb 2b a2 a9 3c f8 a8 5c 3e 07 62 5f be
       -0.004545875 0.02070721 0.21548831 -0.21814738
000080 a3 53 2d bd fc 50 ac 3e e7 eb b4 bd f0 ca 8a 3e
       -0.04231609 0.33655536 -0.08834057 0.27107954
000090 1a 4c 21 be a8 0a 63 be 30 13 55 bc 48 65 61 3e
       -0.15751687 -0.22172034 -0.013005063 0.22011292
0000a0 ee ec 06 3d c2 0a 8b be 86 31 97 3c 7c c8 94 bb
       0.032940798 -0.27156645 0.018456232 -0.004540501
0000b0 c2 54 5e 3e 93 69 8c be 51 63 7a 3d 68 4a c5 bd
       0.2171202 -0.27424297 0.06112987 -0.096333325
0000c0 f0 21 12 3e a2 61 8b be ae 84 f2 bd 33 18 2a 3e
       0.14270759 -0.27222925 -0.11841713 0.16610794
0000d0 35 a1 72 3e 48 31 99 bd 21 d0 42 3e e8 9c 3c 3e
       0.23694308 -0.07480103 0.19024707 0.1841923
0000e0 49 5e b1 3d 2b ae a0 3b 41 b1 9a be f4 67 ee bd
       0.086605616 0.004903575 -0.3021336 -0.11640921
0000f0 2b 9d 1a be 4a 54 72 3d 6d 2b b0 3d 9c f7 4d be
       -0.15099017 0.059162416 0.08602033 -0.20113987

get_operations.1.mid_linear.bias f4 [8]
000000 0d 95 87 be db 1a ea 3d af 7e 3a be 66 9f 19 3e
       -0.26480904 0.114309035 -0.18212388 0.15002212
000010 93 a3 f2 bd 9f 65 89 be d4 7b 7f 3e 39 6b 7d 3e
       -0.118476056 -0.26835343 0.2494958 0.24747933

get_operations.1.out_linear.weight f4 [8, 8]
000000 5c 76 61 be 98 f0 71 be 75 6e 80 be 5b 5e 14 be
       -0.22017807 -0.23626935 -0.25084272 -0.14489119
000010 7e 31 af be e9 fb 8a 3e f3 f2 86 bd 44 ae 81 3e
       -0.34217447 0.27145317 -0.06589308 0.25328267
000020 cf 16 73 be dc fc d6 3c 55 00 8d be d2 11 74 be
       -0.2373917 0.02624362 -0.27539316 -0.23834923
000030 29 ba 08 be 4c f3 d3 bd b9 ab 7b 3e 67 8a af bb
       -0.13352264 -0.103491396 0.24577226 -0.005357075
000040 0a 77 61 3e 3b 84 9b 3c 0a 4a 84 3e 73 66 a2 3e
       0.22018066 0.01898395 0.25837737 0.31718788
000050 5a ff 66 3e 62 29 4d 3e a3 80 4c 3e 04 af 5f be
       0.22558346 0.20035318 0.19970946 -0.21844107
000060 86 68 10 3e 5c 33 32 3e ec 29 82 3e 07 ed 1f be
       0.14102373 0.17402405 0.2542261 -0.15617763
000070 09 8c a7 bb ab fe 91 3e 99 8c a4 3e 78 f0 80 be
       -0.005113129 0.2851461 0.32138517 -0.25183463
000080 80 12 5e 3c 59 e6 a8 3e 30 c9 ba bd 8e 97 fc bd
       0.013554215 0.3298824 -0.09120405 -0.12333594
000090 e6 1b d0 bb 84 da b1 3c 82 26 5d be e3 57 7b bb
       -0.006350982 0.021710642 -0.21596721 -0.0038351945
0000a0 d0 3a 52 be 59 cd 24 bd d6 ef e4 3d 38 0a 9d 3e
       -0.20530248 -0.040234897 0.111785576 0.3067186
0000b0 1b 33 b6 bc 6d 15 06 3e 1f c8 9e 3e 9d 16 ee bd
       -0.022241166 0.13094111 0.31012055 -0.11625407
0000c0 40 bd 44 3e f3 70 7a bd 3f e4 b4 bc 8c 0c a4 3e
       0.19212818 -0.061142873 -0.022081492 0.32040823
0000d0 48 34 95 be 49 e2 48 3e 2e 74 71 3d 4b 28 59 3d
       -0.2914145 0.19617571 0.05894869 0.053016942
0000e0 8d ae 9f bd 56 31 36 be ae ed 7c bd cb 05 b4 3d
       -0.07796965 -0.17792258 -0.061750107 0.087901674
0000f0 93 59 3f 3d 54 bc 9b be 48 28 54 be 19 09 a1 3e
       0.046716284 -0.3041712 -0.20718491 0.31452253

get_operations.1.out_linear.bias f4 [8]
000000 b1 8a 89 3d 27 19 01 3e e4 8c 6c bd 1f d5 25 be
       0.067159064 0.12607251 -0.05775155 -0.1619458
000010 fc ec a5 be 02 23 8e 3b 84 d8 2f bd 96 0e 15 3e
       -0.32407367 0.0043376694 -0.042931095 0.14556345

get_operations.1.out_norm.weight f4 [8]
000000 00 00 80 3f 00 00 80 3f 00 00 80 3f 00 00 80 3f
       1.0 1.0 1.0 1.0
000010 00 00 80 3f 00 00 80 3f 00 00 80 3f 00 00 80 3f
       1.0 1.0 1.0 1.0

get_operations.1.out_norm.bias f4 [8]
000000 00 00 00 00 00 00 00 00 00 00 00 00 00 00 00 00
       0.0 0.0 0.0 0.0
000010 00 00 00 00 00 00 00 00 00 00 00 00 00 00 00 00
       0.0 0.0 0.0 0.0

actor.linears.0.weight f4 [64, 32]
000000 6b 0a 00 3e 76 6c 36 bd 17 a3 f8 3d 0c 41 12 be
       0.12503974 -0.04453703 0.12140482 -0.14282626
000010 0e fe 13 3e 61 da 34 3e da 8c 98 bd 17 fd dc bd
       0.14452383 0.1766143 -0.0744874 -0.107904606
000020 6d 0c ae 3d 69 9e 0d 3d 01 15 1b 3e df 6b f3 3d
       0.08498464 0.0345749 0.15144731 0.11885809
000030 69 02 f5 bc 6b ad 04 3d 8b bd ad bc 61 fd d2 3d
       -0.029908376 0.032391947 -0.021208545 0.103022344
000040 b0 6f 30 3e e8 2e 55 3d 1c 2e d6 bd 14 49 fd bd
       0.17230105 0.052046686 -0.104580134 -0.12367454
000050 4f 94 53 bd 6e 0f bd bc 9d 36 34 be 97 2b b2 3d
       -0.05165511 -0.023078647 -0.17598958 0.0869972
000060 76 e0 17 3d 31 1e 7c 3d 2b a5 10 be da a8 d7 bd
       0.037079297 0.06155223 -0.14125507 -0.10530253
000070 93 d3 90 bd 1c 80 d0 bd 63 ed e6 bd 2f 7a 64 3d
       -0.070716046 -0.10180685 -0.11275747 0.055780586
000080 6a 6f 62 bb 07 4b 2d be 1e 4f 82 3d aa 70 56 bd
       -0.0034551271 -0.16923152 0.06362747 -0.05235354
000090 f4 97 d7 3c 99 fa 28 be 5c 28 19 be d3 57 82 bd
       0.026317574 -0.16501845 -0.14956802 -0.063644074
0000a0 18 d6 54 bd 70 f5 53 3d 1c 73 f8 bd fb fb 7a 3d
       -0.05196199 0.05174774 -0.1213133 0.061275464
0000b0 00 25 f3 3d d6 80 f9 3d 0e 39 7e bd c6 57 dc bd
       0.118722916 0.12182777 -0.06206613 -0.10758929
0000c0 a8 85 0f bd 17 62 14 be d0 e6 12 3b 89 98 e4 3d
       -0.035039574 -0.14490543 0.0022415407 0.11161906
0000d0 48 10 d6 3c 51 4d f0 3d 2a c9 6d bd e6 f5 c5 3d
       0.02613081 0.11733497 -0.058053173 0.09666042
0000e0 c7 23 f0 bd 4e 22 03 be 97 ca 18 be 66 46 d9 3d
       -0.11725574 -0.12806055 -0.14921032 0.106091306
0000f0 df 7b 17 3e 8a 0d 1b be ab 21 d3 3d df ae 9b bd
       0.14793347 -0.15141883 0.10309156 -0.076017134
000100 ff 6b 0c 3e 05 5a fd bd 4a 7c 15 be 30 d3 1f be
       0.13713072 -0.123706855 -0.14598194 -0.15607905
000110 3a 3b 28 3e 98 f3 ab bd ba a8 1b be 2b 54 c9 bd
       0.16428843 -0.08396071 -0.15201083 -0.09830507
000120 ee ed 27 be eb 3e 70 3d 79 ae 1d be bf 71 20 bd
       -0.16399357 0.058653753 -0.15398587 -0.039170977
000130 ed e6 97 3d 16 07 b7 bb fb 54 05 3e 50 10 5c bd
       0.074170925 -0.0055855615 0.13020699 -0.053726494
000140 7f 8b 90 3d cd 0a 65 3d 07 fe f2 bc 13 a9 38 bc
       0.07057857 0.055918504 -0.029662145 -0.011270779
000150 a6 e0 98 3d 55 91 e1 3d a8 46 a5 bd 53 66 af 3d
       0.07464723 0.11014048 -0.08070117 0.08564439
000160 6c 4e bb 3d 98 3e 99 3d 6a 03 86 3d de af 40 bc
       0.09145817 0.07482642 0.0654362 -0.01176068
000170 11 0f b7 bd c3 a4 1b be bd 27 02 3e 4c 65 6b 3d
       -0.089384206 -0.1519957 0.12710471 0.05746965
000180 05 2f 5d 3c 69 12 dc 3d 86 a5 22 3e 78 8a ae bd
       0.01349998 0.10745699 0.15883455 -0.085225046
000190 d0 96 82 3d 0c e3 1d 3e ee 02 e0 bd 58 fc 70 bd
       0.063764215 0.15418643 -0.10938059 -0.058834404
0001a0 e7 91 ef 3d 8c 26 ed bd c9 9a f1 3d 58 b4 f1 3d
       0.116977505 -0.11579618 0.11797101 0.11801976
0001b0 07 2a 2e be 35 57 65 3d 14 de 2f be ac a6 a6 bd
       -0.1700822 0.05599137 -0.1717456 -0.08137259
0001c0 74 c2 14 3e d0 7f 16 3d a6 d6 d9 bd b1 df b3 bd
       0.14527303 0.036742985 -0.10636644 -0.087829
0001d0 40 2a bd 3d f6 32 8b bd d4 ed b3 3d a1 0b c0 bd
       0.09236574 -0.067968294 0.087855965 -0.09377218
0001e0 81 7d ea 3d 05 ee 7b bd 4e 3b 14 3e fa ce 56 bd
       0.11449719 -0.06150629 0.14475748 -0.052443482
0001f0 22 45 0e 3e b5 7f 83 3c 00 e6 eb bc 10 06 05 3e
       0.1389356 0.016052106 -0.028796196 0.12990594
000200 6d 7a 3c bb a6 61 3a 3e 10 eb 29 be 95 58 20 3e
       -0.0028759495 0.18201312 -0.16593575 0.15658791
000210 c2 4f f4 3d 5e 10 b7 3d ef c7 59 bd 21 7d ef 3d
       0.11929275 0.08938669 -0.053169187 0.11693788
000220 74 d0 02 3e 61 63 33 be 6a 5c 6e 3b d9 7d 26 3e
       0.12774831 -0.17518379 0.0036371 0.16258945
000230 5c f5 f9 3b 8b ce f9 3d df 1c 88 3d 50 42 c9 3d
       0.007628126 0.12197598 0.06646132 0.09827101
000240 1a 84 2c 3e 29 ff 01 be 41 83 10 be d6 01 0b be
       0.16847268 -0.12694992 -0.1411257 -0.13574919
000250 83 26 9d bd dc 59 88 bd 01 f2 0d 3e 77 aa 86 bd
       -0.07673361 -0.06657764 0.13861848 -0.06575482
000260 bb dc bf bc 86 d0 1b be 30 0e 67 3b 89 7f 4b bc
       -0.023420682 -0.15216264 0.003525626 -0.0124205435
000270 63 13 8c 3d 07 10 f0 3c 75 19 f1 bc 38 96 e8 3d
       0.06839635 0.029304517 -0.029431084 0.11356777
000280 ca 61 ec bd 06 fd 99 bd a6 25 2d be 21 a2 29 be
       -0.11542089 -0.075189635 -0.16908893 -0.16565754
000290 4b 00 fa 3d 94 a7 18 be 35 ba ea bc 4e ed 73 bd
       0.12207087 -0.14907676 -0.028653244 -0.059552483
0002a0 b3 9e 99 bd 2a e5 8a bc 53 7a 8e 3c fe d6 6c 3a
       -0.075009726 -0.016954977 0.017392313 0.0009034722
0002b0 34 3f df bc c2 fe ac bc df 40 24 be c6 d8 e8 bd
       -0.027251817 -0.021117572 -0.16040371 -0.11369471
0002c0 a5 0e 54 be ba d2 96 3d 04 d2 b5 bd 50 e4 4b 3e
       -0.20708711 0.07364412 -0.08877948 0.19911313
0002d0 c4 17 30 3c 88 4e da 3d f9 ff 0e 3d 74 d3 b5 3d
       0.010747854 0.1065951 0.034912083 0.08878222
0002e0 56 6a b4 3d 89 20 19 3e e3 07 ec 3d da ec f4 3d
       0.088093445 0.14953817 0.11524942 0.11959238
0002f0 e1 14 45 3d a4 dc a0 3d 70 41 1d 3d 87 9f 0a 3e
       0.048115615 0.07854584 0.038392484 0.13537417
000300 ae 37 a4 bd c4 2b 08 be 9c 51 2f be be a0 08 be
       -0.080184326 -0.13297945 -0.17120975 -0.13342568
000310 41 33 81 bc 45 69 1f be fa 15 b5 bd a6 d7 42 bd
       -0.01577151 -0.15567501 -0.08842082 -0.04756894
000320 27 66 1a be 96 13 33 3d a1 07 f7 3c 83 00 85 bd
       -0.1507803 0.04371985 0.030155005 -0.06494238
000330 40 d4 68 bc 63 bf de bd 33 4d 83 3c 89 fc a9 bd
       -0.014210761 -0.10876348 0.016028022 -0.083001204
000340 32 42 0e be c3 86 bf 3d 88 37 ce 3c a9 99 46 3e
       -0.13892439 0.09351876 0.025172964 0.19394554
000350 dd b9 95 bd 5c eb 9d bd f4 9b d0 3d 9a 02 0a 3e
       -0.07310841 -0.07710907 0.10185996 0.13477555
000360 09 fe 44 bc 49 e7 27 bd d5 60 19 bd 53 d8 0b be
       -0.012023457 -0.040992055 -0.03744586 -0.1365674
000370 3b 9b 02 be e4 25 16 be eb 76 03 be 1c e5 7b 3c
       -0.12754528 -0.14662892 -0.12838332 0.015374448
000380 fb 7e d6 bd a0 ae 39 3e b2 17 f2 bd 42 e4 27 be
       -0.10473438 0.1813302 -0.11820926 -0.16395667
000390 7c fe 1b bd 3f fa 5c 3b 4f 20 a8 3d 25 d2 ae bc
       -0.038084492 0.0033718494 0.082092874 -0.02134044
0003a0 07 c8 53 3d 50 71 4d 3d f3 92 36 bd ba 89 0e 3e
       0.051704433 0.05015689 -0.044573735 0.13919726
0003b0 d6 0b 9a 3d 9f 28 cd bd a0 33 44 3d 41 11 c1 3b
       0.07521789 -0.100175135 0.047900796 0.0058919494
0003c0 00 dd f8 bd 3d bd 1b 3e b5 d9 23 be ea f4 c1 bd
       -0.121515274 0.15208907 -0.16001017 -0.09470542
0003d0 3b e1 37 bd 77 1b 33 be 87 90 ac bd d8 98 09 be
       -0.04489253 -0.17490946 -0.08426004 -0.13437212
0003e0 e2 81 9f bd 20 67 dc 3b 9f d7 c2 bd 13 e3 d2 bc
       -0.07788445 0.0067261606 -0.09513783 -0.025743043
0003f0 4e 8c 02 3e 5c 1f 27 be c6 ac 85 bc 44 96 07 bd
       0.12748834 -0.16320556 -0.016317736 -0.03310229

actor.linears.0.bias f4 [64]
000000 63 b3 ad bd 03 f7 e1 3c 56 8a b4 3d f8 db d5 3d
       -0.08481481 0.027583605 0.08815448 0.10442346
000010 6e 35 00 3e 59 e5 11 be c6 a9 14 3e 01 89 23 bd
       0.12520382 -0.14247645 0.14517888 -0.03992558
000020 09 74 92 3b ea 33 ba 3d c5 4b 93 39 2b d8 11 be
       0.004469399 0.09091933 0.00028094478 -0.14242618
000030 11 8a 1f 3e 63 ee 46 3e b4 1c 02 bd 6e 4a 4a 3d
       0.15580012 0.19426875 -0.031765655 0.049387388
000040 f9 45 f6 3d 59 3d df 3c 8a 57 19 3c 5f 56 e6 bb
       0.12025065 0.027250933 0.00935925 -0.007029339
000050 c4 2f bc bd ac 11 18 be 8a 1e 02 be 8a bd 10 3e
       -0.09188798 -0.14850491 -0.12706962 0.14134803
000060 3c 54 d5 3d 32 7b c7 3d 60 23 0b bd e8 08 db bd
       0.10416457 0.097402945 -0.033969283 -0.10695058
000070 22 09 2f be f8 c2 2c 3d 60 55 0a 3e ba 5c b5 3c
       -0.17093328 0.042178124 0.1350913 0.022138942
000080 b8 e7 c8 bd 50 22 04 bd 22 36 fe bd f9 69 7c bc
       -0.09809822 -0.032259285 -0.12412669 -0.015406125
000090 8d 45 c6 bc 4f 53 0f be 9d e3 14 be 6b 42 8a bd
       -0.024203086 -0.13996623 -0.14539953 -0.067509495
0000a0 5c 15 cf 3d 04 da 13 3e fa 31 0b be 11 f1 99 3d
       0.10111496 0.14438635 -0.13593283 0.07516683
0000b0 0a 52 ba 3d d7 74 34 bd 79 ce 3d 3e 9c dd 86 bc
       0.09097679 -0.04405674 0.18535794 -0.016463093
0000c0 7d cf e9 3d 19 3a c7 3d f8 61 9f bd 05 9c 4d 3c
       0.114165284 0.09727878 -0.07782358 0.012549405
0000d0 90 29 8c 3c 9a d5 1c be 4c b0 c0 bc 02 ea 21 3e
       0.017109662 -0.15315858 -0.023521565 0.15811923
0000e0 a8 c3 f3 3d 52 d1 29 3d 3b d4 0d be dc b2 8f 3d
       0.11902553 0.04145939 -0.13850491 0.070165366
0000f0 93 ff f8 bc 29 f6 89 3d 58 64 f3 3d db a3 1b 3d
       -0.030395305 0.067364044 0.118843734 0.03799806
