SHL/model/SPLs.pt (torch, 85289 bytes, 72 tensors)

get_machines.0.attn_l f4 [1, 1, 8]
0.6270625 -0.53577787 -0.012377918 0.09765811 -0.31122473 -0.47396305 1.7646701 -0.1724402
00000000: 2b87 203f bd28 09bf c0cc 4abc fa00 c83d
00000010: d958 9fbe 49ab f2be b6e0 e13f 2a94 30be

get_machines.0.attn_r f4 [1, 1, 8]
0.59656155 0.051303692 -0.4711736 -0.7316061 0.7187467 -1.1683222 0.37527904 -1.058943
00000000: 42b8 183f d223 523d ab3d f1be 8a4a 3bbf
00000010: c9ff 373f 958b 95bf 9324 c03e 728b 87bf

get_machines.0.attn_e f4 [1, 1, 8]
0.3724693 0.09782584 1.0904416 -0.38890243 0.3551918 -0.42084837 -0.39093506 0.41677588
00000000: 4cb4 be3e ea58 c83d 9793 8b3f 381e c7be
00000010: b3db b53e 7079 d7be a428 c8be a663 d53e

get_machines.0.fc_src.weight f4 [8, 6]
0.41657045 0.45590612 -0.14187153 -0.07251478 0.4854515 0.49482372 0.41555262 -0.8536051
-0.24940431 0.46381032 -0.4335951 0.07939332 0.07411339 0.10919547 -0.46515372 0.75934243
-1.1839209 0.11715451 -0.39781633 -0.57739353 -0.44160658 -0.35174158 0.39623657 0.6158363
0.61600983 0.49268174 -0.30854756 -0.43773237 -0.042665754 -0.07105836 -0.40998617 0.07868946
-0.37670434 0.372734 -0.20863561 -0.42710015 0.15608495 -0.6064404 -1.2158177 1.204642
0.64904976 -0.64554673 0.7160193 -0.45837018 1.2285675 0.370926 -0.5509541 -0.46272352
00000000: b948 d53e 876c e93e c546 11be a182 94bd
00000010: 198d f83e 8959 fd3e 50c3 d43e dd85 5abf
00000020: d863 7fbe 8c78 ed3e 2d00 debe f798 a23d
00000030: c3c8 973d e0a1 df3d a128 eebe 4464 423f
00000040: b88a 97bf b4ee ef3d 95ae cbbe 10d0 13bf
00000050: 421a e2be 7917 b4be 85df ca3e 73a7 1d3f
00000060: d2b2 1d3f c840 fc3e f2f9 9dbe 751e e0be
00000070: 49c2 2ebd 0c87 91bd b5e9 d1be f127 a13d
00000080: 64df c0be fed6 be3e 93a4 55be dfac dabe
00000090: bcd4 1f3e ae3f 1bbf ea9f 9bbf b631 9a3f
000000a0: 2028 263f 8d42 25bf 0a4d 373f 7faf eabe
000000b0: b341 9d3f 03ea bd3e 540b 0dbf 19ea ecbe

get_machines.0.fc_dst.weight f4 [8, 3]
0.3522746 -0.11810449 0.8307968 0.43019754 -0.025551995 0.054100085 -0.7919023 0.27139607
-0.24245055 -0.34048137 -0.40098938 0.08336186 -0.24193136 -0.4298982 -0.0040290183 -1.0899376
-0.6439703 -0.39535937 0.6301228 1.134658 -0.37872088 -0.4908925 -0.2513846 0.25940952
00000000: 565d b43e c4e0 f1bd 19af 543f da42 dc3e
00000010: 6b52 d1bc 0d98 5d3d 1cba 4abf 6df4 8a3e
00000020: f544 78be 9353 aebe 7b4e cdbe 9fb9 aa3d
00000030: dbbc 77be 9e1b dcbe db05 84bb 1383 8bbf
00000040: 3ddb 24bf 8b6c cabe ba4f 213f 793c 913f
00000050: b4e7 c1be 4356 fbbe 7bb5 80be 53d1 843e

get_machines.0.fc_edge.weight f4 [8, 1]
0.013953456 -0.1598481 -0.06167019 0.24429472 0.16145152 -0.5366115 1.2041107 0.4825346
00000000: 099d 643c 38af 23be e299 7cbd 6528 7a3e
00000010: 8c53 253e 5f5f 09bf 4d20 9a3f c60e f73e

get_machines.1.attn_l f4 [1, 1, 8]
-0.17480913 -0.00068237784 -0.22426882 -0.6218157 0.0545653 -0.8331051 0.71187955 -1.001152
00000000: 2a01 33be 9ae1 32ba baa6 65be 502f 1fbf
00000010: dd7f 5f3d 6046 55bf bd3d 363f c025 80bf

get_machines.1.attn_r f4 [1, 1, 8]
-0.60765046 -0.074992895 -0.041179355 1.2681934 -0.6015547 -0.07585508 -0.8880307 0.62096536
00000000: fb8e 1bbf e095 99bd afab 28bd 2954 a23f
00000010: 7dff 19bf e859 9bbd fb55 63bf 96f7 1e3f

get_machines.1.attn_e f4 [1, 1, 8]
-0.3407104 -0.24666819 -1.2890075 -0.9879849 -0.26073274 0.06839996 -0.2288704 0.30567387
00000000: 9871 aebe 9696 7cbe 33fe a4bf 94ec 7cbf
00000010: c37e 85be 4715 8c3d 015d 6abe 4981 9c3e

get_machines.1.fc_src.weight f4 [8, 8]
1.2727541 -0.6700572 -0.041001573 -0.4476758 -0.56735593 0.4914243 -0.09518622 -0.07731123
0.40417287 -1.0139571 -0.088206984 0.38346556 0.5384353 -0.43515915 -0.5408813 -0.09548187
-0.17626919 0.10895259 0.60059 0.47839656 -0.45239353 0.020296315 -0.0964999 0.6284611
-0.44549587 -0.22786443 -0.1997548 -0.06298605 0.60098654 1.4743612 -0.155467 0.29164192
0.492911 0.07633655 0.33638188 -0.12440003 -0.481039 -0.18017046 0.2222612 0.033162344
-0.20569585 -0.50358933 0.64841294 1.5283974 -0.086629525 -1.0621753 1.6140692 0.053557195
0.5172825 0.47393018 -0.37216985 0.06950793 0.13861553 -0.10717164 -0.3638748 -0.22372368
-0.24369569 -0.2607186 -0.2697522 1.4178624 -0.5657004 0.43628114 -0.30551946 -0.453954
00000000: 9be9 a23f de88 2bbf 44f1 27bd c335 e5be
00000010: 3d3e 11bf f79b fb3e fef0 c2bd 5a55 9ebd
00000020: bfef ce3e 59c9 81bf dda5 b4bd 9955 c43e
00000030: e5d6 093f 2ecd debe 3277 0abf 008c c3bd
00000040: e97f 34be 8922 df3d 44c0 193f 65f0 f43e
00000050: 20a0 e7be 7544 a63c bda1 c5bd d4e2 203f
00000060: 0918 e4be 4b55 69be 868c 4cbe d5fe 80bd
00000070: 41da 193f deb7 bc3f be32 1fbe 1752 953e
00000080: d55e fc3e 5656 9c3d 3f3a ac3e 71c5 febd
00000090: be4a f6be 9b7e 38be 7198 633e 3dd5 073d
000000a0: efa1 52be 3beb 00bf 64fe 253f 87a2 c33f
000000b0: d26a b1bd 5cf5 87bf d299 ce3f ca5e 5b3d
000000c0: a06c 043f faa6 f23e 0c8d bebe 2c5a 8e3d
000000d0: 3bf1 0d3e ce7c dbbd cc4d babe d217 65be
000000e0: 5d8b 79be e97c 85be f61c 8abe 847c b53f
000000f0: bed1 10bf 3e60 df3e 0c6d 9cbe a96c e8be

get_machines.1.fc_dst.weight f4 [8, 8]
0.7191481 0.07892997 -0.8525022 1.2511597 -0.69361085 0.080167316 -0.32710618 -0.44385886
0.021183258 -0.27590394 0.1938541 -0.22266047 -0.124373466 -0.48825112 -0.28910613 -0.20677774
0.39682165 -0.4564708 -0.74652845 -0.20864986 -0.22908388 -0.25896046 -0.31143656 0.3556348
-0.2909769 -0.6566241 0.23165579 -0.005152495 0.04602886 0.4897732 0.8446458 0.6003264
0.24814877 0.43985415 -0.27388513 -0.42906493 -0.3709138 0.08214281 -0.2881577 -0.4834997
0.702098 -0.11025037 -0.7245323 -0.36105672 0.004933291 0.5839362 0.14791003 -0.3352816
-0.54944456 -0.54581714 0.3793567 0.30323678 0.25919506 0.035550926 -0.62751544 -0.77151805
-0.48370153 0.16471244 0.32736486 -0.098459855 0.15394261 -0.22102532 0.1500016 -0.5529938
00000000: 171a 383f 09a6 a13d 963d 5abf 0026 a03f
00000010: 7b90 31bf c32e a43d 767a a7be 7841 e3be
00000020: 8388 ad3c 4843 8dbe b081 463e 1b01 64be
00000030: 84b7 febd 0dfc f9be b805 94be 8bbd 53be
00000040: 352c cb3e 8ab6 e9be 7d1c 3fbf 4fa8 55be
00000050: f794 6abe 7796 84be 9d74 9fbe c415 b63e
00000060: edfa 94be 8418 28bf 2d37 6d3e 43d6 a8bb
00000070: c288 3c3d 8ec3 fa3e b53a 583f feae 193f
00000080: b61a 7e3e 9034 e13e ac3a 8cbe 66ae dbbe
00000090: 6ae8 bdbe 7d3a a83d 6889 93be 468d f7be
000000a0: b2bc 333f f2ca e1bd f37a 39bf 6ddc b8be
000000b0: 72a7 a13b d87c 153f ba75 173e 08aa abbe
000000c0: 66a8 0cbf acba 0bbf 0b3b c23e da41 9b3e
000000d0: 37b5 843e d99d 113d daa4 20bf 3582 45bf
000000e0: baa7 f7be 61aa 283e 5e9c a73e 52a5 c9bd
000000f0: 22a3 1d3e 7654 62be 059a 193e 0091 0dbf

get_machines.1.fc_edge.weight f4 [8, 1]
0.6023619 0.2815209 0.41879588 0.03032714 0.053405266 -0.3818666 -0.7537473 0.38659292
00000000: 6434 1a3f 8223 903e 6a6c d63e 9f70 f83c
00000010: 7bbf 5a3d 0584 c3be 95f5 40bf 82ef c53e

get_operations.0.relation_pri f4 [2, 2]
1.1499836 1.0306518 0.85136044 1.2119416
00000000: aa32 933f 66ec 833f c2f2 593f e720 9b3f

get_operations.0.k_linear.weight f4 [8, 8]
0.16038634 -0.13399184 -0.14099388 0.30597007 0.008698201 -0.24807641 -0.07397829 0.06695656
0.29306874 -0.54639643 -0.10991709 0.22240946 -0.25508845 -0.12021438 0.3333211 0.1514442
0.22558671 -0.18682858 0.08958941 -0.17055051 1.1070219 -0.033333693 0.41383785 0.32407346
-0.62228954 0.25318843 -0.48206624 -0.0035872357 0.41781157 -0.12590891 -0.3987752 0.2253896
0.13679035 0.6866666 -0.41711134 -0.39036697 -0.017311143 -0.4013683 0.11602405 0.20414478
0.028876105 -0.25258487 0.49785477 0.6765415 0.52818024 -0.3034884 0.5249202 -0.083870746
-0.11696808 0.05215868 0.63238186 -0.3868647 -0.47799343 -0.39512208 -0.33028287 -0.35152474
-0.06343887 0.5112001 -0.011608255 -0.1777984 -0.2872299 0.10806835 1.0794334 0.6398161
00000000: 513c 243e 2835 09be b360 10be 1ca8 9c3e
00000010: e682 0e3c be07 7ebe ee81 97bd 8520 893d
00000020: 1b0d 963e a3e0 0bbf 361c e1bd 4ebf 633e
00000030: f49a 82be f532 f6bd 10a9 aa3e 3014 1b3e
00000040: 3400 673e fe4f 3fbe a77a b73d cba4 2ebe
00000050: e5b2 8d3f e988 08bd 8ee2 d33e f5ec a53e
00000060: 5e4e 1fbf eaa1 813e 63d1 f6be d417 6bbb
00000070: 66eb d53e 44ee 00be 432c ccbe 88cc 663e
00000080: c512 0c3e 62c9 2f3f 9e8f d5be 2ede c7be
00000090: 19d0 8dbc 2580 cdbe 049e ed3d 540b 513e
000000a0: 958d ec3c ce52 81be d2e6 fe3e d331 2d3f
000000b0: d236 073f d562 9bbe 2c61 063f 6dc4 abbd
000000c0: f68c efbd 57a4 553d c7e3 213f 2113 c6be
000000d0: 8ebb f4be 714d cabe d61a a9be 0dfb b3be
000000e0: 3dec 81bd 02de 023f 8d30 3ebc c910 36be
000000f0: cc0f 93be f052 dd3d e02a 8a3f fdca 233f

get_operations.0.k_linear.bias f4 [8]
0.1654688 0.42029217 0.29303423 -0.23891778 0.15251276 -0.23696162 -0.24322963 0.22487757
00000000: a770 293e 8930 d73e 9508 963e dda6 74be
00000010: 4e2c 1c3e 11a6 72be 3011 79be 4e46 663e

get_operations.0.k_linear_dst.weight f4 [8, 6]
-0.8233647 -0.41832694 0.2790328 0.2889646 -0.35773334 -0.4744923 0.12590046 -0.23217826
-0.4551442 -0.10799359 -0.048035044 0.29652175 -0.1177203 -0.5333542 0.07562261 0.24587007
-0.28462994 0.16612373 -0.054300636 -0.19807562 0.26062515 -0.33065692 0.77811253 -0.15487362
-0.13441056 0.037398018 -0.1207449 0.10414187 -0.5547377 -0.49184865 0.1308089 -0.12561257
-0.11868431 -0.14839146 -0.5654575 0.36028984 0.8248248 0.09536481 -0.23074816 -0.23749995
0.15428025 -0.8800152 -0.0012382618 0.3099671 0.45010522 -0.07112078 0.15247518 0.82655597
00000000: 07c8 52bf f32e d6be 63dd 8e3e 2bf3 933e
00000010: d328 b7be a8f0 f2be 0dec 003e 23c0 6dbe
00000020: a908 e9be be2b ddbd 65c0 44bd b3d1 973e
00000030: 5717 f1bd e789 08bf 07e0 9a3d 5dc5 7b3e
00000040: 04bb 91be 571c 2a3e 586a 5ebd 56d4 4abe
00000050: a970 853e dd4b a9be 6232 473f 3197 1ebe
00000060: eca2 09be aa2e 193d 1a49 f7bd 5548 d53d
00000070: 4a03 0ebf 96d3 fbbe c5f2 053e 95a0 00be
00000080: c210 f3bd eef3 17be d3c1 10bf e977 b83e
00000090: b827 533f a04e c33d 3f49 6cbe 3033 73be
000000a0: a4fb 1d3e ad48 61bf 2c4d a2ba 02b4 9e3e
000000b0: 3174 e63e c6a7 91bd 7422 1c3e 2c99 533f

get_operations.0.k_linear_dst.bias f4 [8]
0.2873287 -0.050974708 0.5601193 -0.29531288 -0.033389904 -0.31233075 -0.5113749 0.27636954
00000000: bf1c 933e dbca 50bd fa63 0f3f 4033 97be
00000010: dac3 08bd d1e9 9fbe 77e9 02bf 4f80 8d3e

get_operations.0.k_linear_edge.weight f4 [8, 1]
-0.39995393 0.35283753 -0.8450986 -0.91771436 0.34185496 0.30084038 0.49909395 0.36239505
00000000: c3c6 ccbe 1fa7 b43e 6258 58bf 54ef 6abf
00000010: 9d07 af3e c007 9a3e 3e89 ff3e d88b b93e

get_operations.0.k_linear_edge.bias f4 [8]
-0.94294184 0.9079794 0.532016 0.7631998 0.8328656 -0.2618694 0.6485686 -0.34848392
00000000: a364 71bf 5771 683f 3332 083f 1061 433f
00000010: ae36 553f bf13 86be 9708 263f 7c6c b2be

get_operations.0.q_linear.weight f4 [8, 6]
0.124219246 -0.071165994 -0.008024903 0.11005401 -0.28533277 0.1881708 -0.06224424 0.19991173
-0.26339284 -0.21874386 0.19515191 -0.29221207 -0.10847346 -0.79636747 -0.36272788 -0.748787
0.1248337 -0.3781242 0.28894013 0.53169715 -0.06931866 -0.043128338 0.13044684 0.2123724
0.7981805 -0.028455107 -0.60242563 0.144623 -0.1552573 0.41212988 -0.20017457 0.45892853
-0.24489807 0.38506287 -0.19424991 -0.48774612 0.36555544 0.7238858 0.029273935 0.16346511
0.33937365 0.4519709 0.13592298 0.3829543 -0.34316844 -0.31879398 -0.31007123 -0.5885641
00000000: a966 fe3d 7abf 91bd e27a 03bc ff63 e13d
00000010: 2317 92be d9af 403e d1f3 7ebd a9b5 4c3e
00000020: 6ddb 86be 64fe 5fbe e7d5 473e d29c 95be
00000030: 5527 debd bdde 4bbf 78b7 b9be 81b0 3fbf
00000040: d0a8 ff3d 7f99 c1be f6ef 933e 4e1d 083f
00000050: f1f6 8dbd 57a7 30bd db93 053e 2778 593e
00000060: 8f55 4c3f af1a e9bc 9138 1abf 0d18 143e
00000070: c5fb 1ebe b002 d33e 90fa 4cbe aef8 ea3e
00000080: 8fc6 7abe f626 c53e 73e9 46be dcb9 f9be
00000090: 152a bb3e 9450 393f e4cf ef3c 6663 273e
000000a0: 62c2 ad3e bb68 e73e 652f 0b3e 9612 c43e
000000b0: c6b3 afbe f738 a3be a8c1 9ebe 23ac 16bf

get_operations.0.q_linear.bias f4 [8]
0.13143702 -0.33832493 0.02737174 0.24986964 0.20466942 -0.08867255 0.42183036 0.01952776
00000000: 6d97 063e ed38 adbe b33a e03c d4dd 7f3e
00000010: dc94 513e f499 b5bd 26fa d73e aef8 9f3c

get_operations.0.v_linear.weight f4 [8, 8]
-0.56420743 0.36857468 0.36707664 -0.094028965 -0.025979828 -0.47871035 -0.7393076 0.44826788
-0.3055527 0.53892076 -0.6088255 -0.6513524 -0.35264966 0.47951317 0.0056363004 -0.10362335
-0.1465622 0.4276836 -0.31268927 0.34957486 0.20337805 0.6412254 -0.40756923 0.6013301
0.046694104 -0.12547778 0.3318011 -0.126403 -0.29885617 -0.22623506 0.30672273 -0.45424396
0.30706468 -0.13901763 -0.2605017 0.46347058 0.98179364 -0.14755072 -0.5238006 0.12806015
0.34326234 -0.29303032 0.1003641 0.0774651 0.59494424 0.14586282 0.1829752 0.38260132
0.2779633 0.37230185 -0.16016845 -0.36513957 0.062828936 0.028194606 0.0639942 -0.09541173
-0.93025184 0.6255353 0.04831985 0.4079708 -0.23036498 -0.0047570425 0.09495923 0.6884483
00000000: e66f 10bf d2b5 bc3e 78f1 bb3e 4292 c0bd
00000010: a6d3 d4bc 8619 f5be 4343 3dbf 5e83 e53e
00000020: 6771 9cbe b6f6 093f fddb 1bbf 08bf 26bf
00000030: 7f8e b4be c082 f53e b7b0 b83b 7b38 d4bd
00000040: 6714 16be 58f9 da3e cf18 a0be 7afb b23e
00000050: 5642 503e 5927 243f eaac d0be c5f0 193f
00000060: 5142 3f3d 3f7d 00be d5e1 a93e ca6f 01be
00000070: ad03 99be 2aaa 67be c30a 9d3e aa92 e8be
00000080: 9537 9d3e a35a 0ebe 7b60 85be 044c ed3e
00000090: d456 7b3f 8917 17be cc17 06bf 3322 033e
000000a0: 15c0 af3e 1208 96be b18b cd3d 06a6 9e3d
000000b0: 444e 183f 105d 153e da5d 3b3e 52e4 c33e
000000c0: 3551 8e3e 599e be3e 3303 24be 93f3 babe
000000d0: 75ac 803d 60f8 e63c 640f 833d 3a67 c3bd
000000e0: fc24 6ebf 1523 203f 09eb 453d 8ce1 d03e
000000f0: cce4 6bbe f7e0 9bbb fc79 c23d 263e 303f

get_operations.0.v_linear.bias f4 [8]
0.045748707 -0.13215496 -0.16129869 0.008012161 -0.1986468 0.03564757 0.30340254 0.2576769
00000000: ff62 3b3d a153 07be 7c2b 25be 7045 033c
00000010: 116a 4bbe 3003 123d 9457 9b3e 3aee 833e

get_operations.0.v_linear_dst.weight f4 [8, 6]
0.51266676 0.25035962 -0.13238247 0.28035232 -0.569209 0.35087255 0.10672039 1.1569914
0.037919383 0.32707527 0.22325423 0.9058911 -0.049692415 0.42171153 0.13926584 -0.10187492
0.17188556 -0.14564316 -0.19066869 0.059146088 -0.15375353 -0.025513738 -0.47753873 -0.15660621
-0.08751297 0.85899734 -0.09429581 -0.44719982 0.27550033 -0.16333173 -0.28060856 -0.53459376
-0.71182114 0.119188786 -0.00960498 -0.23014319 -0.37375638 0.1632238 -0.02203813 0.6323439
0.72860265 0.57987934 0.16486387 -0.35475808 0.6888175 -0.17180252 -0.33679354 0.37068442
00000000: 213e 033f 232f 803e 458f 07be 578a 8f3e
00000010: aeb7 11bf 91a5 b33e 3890 da3d 4b18 943f
00000020: 5b51 1b3d 6976 a73e c29c 643e 7be8 673f
00000030: 468a 4bbd 93ea d73e b49b 0e3e cca3 d0bd
00000040: c502 303e 7b23 15be a73e 43be 2b43 723d
00000050: 9171 1dbe 3002 d1bc f57f f4be 615d 20be
00000060: 003a b3bd 40e7 5b3f 291e c1bd 60f7 e4be
00000070: 610e 8d3e 6f40 27be edab 8fbe 23db 08bf
00000080: e939 36bf 4019 f43d 355e 1dbc a8aa 6bbe
00000090: ff5c bfbe 2424 273e 4f89 b4bc 4ae1 213f
000000a0: b485 3a3f f972 143f 13d2 283e daa2 b5be
000000b0: 5856 303f 00ed 2fbe 3470 acbe 59ca bd3e

get_operations.0.v_linear_dst.bias f4 [8]
-0.20379925 0.14501752 -0.31960145 -0.26566344 -0.09455513 0.19911751 -0.24150866 -0.009520523
00000000: c0b0 50be 797f 143e cda2 a3be 0a05 88be
00000010: 1fa6 c1bd 76e5 4b3e 0c4e 77be f8fb 1bbc

get_operations.0.a_linear.weight f4 [8, 8]
-0.42476046 -0.11460314 -0.040990964 0.37539628 0.2714143 0.10991513 -0.31141153 -0.27657425
0.31111348 -0.10076551 -0.33385277 0.4604821 0.17472877 0.070423365 -0.27875465 0.1682622
-0.45829588 0.24022059 0.27800497 -0.1508071 0.3121629 -0.4910649 0.31163862 -0.6170391
0.48812485 0.5555781 -0.2730968 -0.20464467 0.5676745 0.24828744 0.072485946 -0.22242332
0.40294167 0.095601946 0.056036863 -0.08867266 -0.45496124 0.36283663 -0.3530669 0.15494587
0.46104106 0.02163167 -0.14973877 0.25528345 -0.28925708 0.22430746 -0.1492915 0.07364832
0.38761675 0.5307914 -0.18037006 0.0892287 0.19617012 0.29686868 0.6725015 -0.29258236
-0.3200905 -0.39784887 0.5653395 -0.63853633 0.115200445 -0.12099883 1.1581799 0.08288597
00000000: 347a d9be 0db5 eabd 24e6 27bd f133 c03e
00000010: d1f6 8a3e 2f1b e13d 5571 9fbe 249b 8dbe
00000020: 444a 9f3e 265e cebd c0ee aabe 4fc4 eb3e
00000030: 19ec 323e 203a 903d eeb8 8ebe ed4c 2c3e
00000040: c2a5 eabe 63fc 753e ab56 8e3e 2d6d 1abe
00000050: d1d3 9f3e dc6c fbbe 198f 9f3e 46f6 1dbf
00000060: 80eb f93e 5e3a 0e3f 58d3 8bbe 5f8e 51be
00000070: 1e53 113f 103f 7e3e 8373 943d f0c2 63be
00000080: 5f4e ce3e f4ca c33d e986 653d 039a b5bd
00000090: aef0 e8be b9c5 b93e 2fc5 b4be 21aa 1e3e
000000a0: 930d ec3e e634 b13c 1f55 19be 83b4 823e
000000b0: 8119 94be dbb0 653e dfdf 18be eed4 963d
000000c0: b475 c63e f2e1 073f eeb2 38be 89bd b63d
000000d0: d2e0 483e 2cff 973e 0f29 2c3f 5bcd 95be
000000e0: e7e2 a3be d9b2 cbbe 17ba 103f 1e77 23bf
000000f0: 36ee eb3d 3cce f7bd 3d3f 943f 1fc0 a93d

get_operations.0.a_linear.bias f4 [8]
0.25250113 -0.17693849 0.12542193 0.097809315 -0.09358594 -0.2580061 0.027193462 0.23148958
00000000: d447 813e 5d2f 35be 9b6e 003e 4050 c83d
00000010: fca9 bfbd 6019 84be d3c4 de3c 9b0b 6d3e

get_operations.0.norms.weight f4 [8]
1.0 1.0 1.0 1.0 1.0 1.0 1.0 1.0
00000000: 0000 803f 0000 803f 0000 803f 0000 803f
00000010: 0000 803f 0000 803f 0000 803f 0000 803f

get_operations.0.norms.bias f4 [8]
0.0 0.0 0.0 0.0 0.0 0.0 0.0 0.0
00000000: 0000 0000 0000 0000 0000 0000 0000 0000
00000010: 0000 0000 0000 0000 0000 0000 0000 0000

get_operations.0.mid_linear.weight f4 [8, 8]
0.1958873 -0.017870411 -0.06783752 0.1594741 0.06702651 0.13937217 0.192376 -0.27227166
0.05886781 0.31463894 0.19010918 0.02682887 -0.25412613 0.11610828 -0.1524389 0.03592399
-0.12170109 -0.0010933524 0.2566591 0.10771432 0.035756838 -0.0055468413 -0.14067298 -0.15746528
-0.15442668 0.18067962 0.13783793 -0.3186791 -0.022425536 -0.15355614 0.24623756 0.163843
0.25283134 0.2141139 -0.05567137 -0.1319755 -0.22007918 0.2664066 -0.2679524 0.048575718
-0.25622442 -0.039449345 -0.05298866 -0.3242237 -0.16739607 0.05605872 0.31530225 0.21501762
-0.34662622 0.32476038 -0.063545264 -0.23367217 0.15856917 -0.022108614 -0.06163319 0.32940957
-0.07054503 0.037138496 -0.0511676 0.110773 -0.14925876 0.024363155 -0.16792339 -0.1637438
00000000: ae96 483e f864 92bc 66ee 8abd 2e4d 233e
00000010: 3245 893d 94b7 0e3e 37fe 443e 3167 8bbe
00000020: 5f1f 713d 5b18 a13e fbab 423e 38c8 db3c
00000030: d21c 82be 2eca ed3d f118 1cbe 0925 133d
00000040: 6c3e f9bd d24e 8fba d268 833e 5399 dc3d
00000050: c375 123d 47c2 b5bb 940c 10be 943e 21be
00000060: 0722 1ebe 1404 393e 6325 0d3e e829 a3be
00000070: c2b5 b7bc d23d 1dbe b325 7c3e 76c6 273e
00000080: 1c73 813e ad40 5b3e aa07 64bd 9624 07be
00000090: 705c 61be 7266 883e 0f31 89be 55f7 463d
000000a0: d92f 83be a395 21bd a30a 59bd a600 a6be
000000b0: e069 2bbe d49d 653d 4c6f a13e 942d 5c3e
000000c0: fe78 b1be fe46 a63e 0524 82bd c247 6fbe
000000d0: f55f 223e 201d b5bc 1573 7cbd 5fa8 a83e
000000e0: ea79 90bd 891e 183d 1e95 51bd f4dc e23d
000000f0: 4ad7 18be 3d95 c73c 1cf4 2bbe 74ac 27be

get_operations.0.mid_linear.bias f4 [8]
0.23783563 -0.09369019 0.12881999 0.17713195 -0.2813432 -0.046303708 -0.2523105 -0.25559822
00000000: 2f8b 733e a4e0 bfbd 63e9 033e 1462 353e
00000010: 370c 90be f5a8 3dbd d82e 81be c5dd 82be

get_operations.0.out_linear.weight f4 [8, 8]
0.28237242 -0.11735366 0.08038188 -0.22078319 0.073707506 -0.0030297684 0.26948148 -0.0020683566
-0.12958014 -0.0471976 0.06794675 0.0021027485 -0.34089395 -0.34907517 0.005206147 0.15844071
0.12762816 -0.22726329 0.20951433 0.18032187 -0.0434774 0.31195205 0.15651523 0.24568602
0.25792032 -0.20908499 -0.021123579 -0.29340237 0.14542732 -0.1476485 -0.019213252 0.21040486
-0.15607134 -0.3525918 0.33027893 0.048257466 0.28938693 -0.12585641 0.030718815 -0.2373016
0.028498814 -0.2936455 0.01907836 -0.19902195 0.07543085 0.32235625 -0.12194737 0.00023977342
0.0221107 -0.329483 -0.09248957 0.2536195 0.13119374 -0.098363176 0.05208874 0.0043187453
0.25495657 -0.2282927 0.28488433 0.32778442 -0.033581786 0.2628128 0.0365956 -0.08807024
00000000: 1e93 903e 1e57 f0bd 419f a43d fd14 62be
00000010: f6f3 963d 148f 46bb 7af9 893e 448d 07bb
00000020: a8b0 04be 4552 41bd aa27 8b3d 44ce 093b
00000030: a789 aebe fbb9 b2be 5498 aa3b 483e 223e
00000040: f5b0 023e b5b7 68be ed8a 563e 4ca6 383e
00000050: 5c15 32bd 2eb8 9f3e 8745 203e 1e95 7b3e
00000060: 220e 843e 601a 56be 5b0b adbc d638 96be
00000070: e6ea 143e 2b31 17be 1c65 9dbc 5f74 573e
00000080: 2ad1 1fbe ea86 b4be 521a a93e 9fa9 453d
00000090: 862a 943e 81e0 00be 06a6 fb3c 31ff 72be
000000a0: 5876 e93c b458 96be 394a 9c3c 69cc 4bbe
000000b0: 7d7b 9a3d e10b a53e 8bbf f9bd b06b 7b39
000000c0: 8021 b53c ffb1 a8be 2c6b bdbd 6ada 813e
000000d0: a757 063e a272 c9bd 015b 553d 4384 8d3b
000000e0: ab89 823e 90c5 69be 5cdc 913e 5cd3 a73e
000000f0: 0e8d 09bd 668f 863e 45e5 153d 2c5e b4bd

get_operations.0.out_linear.bias f4 [8]
-0.344433 -0.2564354 -0.28782484 -0.118351676 -0.1996153 0.1416064 -0.34218797 -0.060550794
00000000: 8659 b0be 804b 83be c75d 93be 5d62 f2bd
00000010: f467 4cbe 4501 113e 4333 afbe 1c04 78bd

get_operations.0.out_norm.weight f4 [8]
1.0 1.0 1.0 1.0 1.0 1.0 1.0 1.0
00000000: 0000 803f 0000 803f 0000 803f 0000 803f
00000010: 0000 803f 0000 803f 0000 803f 0000 803f

get_operations.0.out_norm.bias f4 [8]
0.0 0.0 0.0 0.0 0.0 0.0 0.0 0.0
00000000: 0000 0000 0000 0000 0000 0000 0000 0000
00000010: 0000 0000 0000 0000 0000 0000 0000 0000

get_operations.1.relation_pri f4 [2, 2]
1.129132 1.1066421 0.98538315 1.0236399
00000000: 6687 903f 73a6 8d3f 1242 7c3f a206 833f

get_operations.1.k_linear.weight f4 [8, 8]
0.13473508 -0.1138154 0.3686401 -0.060388107 -0.12960052 0.14825664 -0.3271052 0.4911533
0.210574 0.057406537 -0.458175 -0.455637 0.16889362 0.43430045 -0.31405765 -0.00418475
0.8563202 0.44913498 -0.15993448 -0.840618 0.3656778 0.73003495 -0.0052520153 0.43197036
-0.6551104 0.48727044 -0.5536426 0.06705799 -0.17282732 0.38142666 -0.10561215 0.22661288
0.09937795 -0.18610369 -0.47747287 -0.097250596 0.37001523 -0.49327144 -0.47153628 -0.046368025
-0.13771313 -0.31598097 -0.6110369 -0.30771652 0.48306516 0.20410784 0.02574645 0.09287995
0.0060395533 0.105642855 0.38415635 0.3250424 -0.028586688 0.1551525 -0.34761393 -0.2386672
-0.35935497 0.3804363 0.74347687 -0.38308778 -0.1068351 -0.09846288 -0.38089606 -0.6876441
00000000: fef7 093e 0c18 e9bd 65be bc3e 8559 77bd
00000010: 00b6 04be 97d0 173e 557a a7be 7278 fb3e
00000020: b6a0 573e 1e23 6b3d ea95 eabe 4149 e9be
00000030: 73f2 2c3e a15c de3e 2acc a0be 3a20 89bb
00000040: cd37 5b3f 05f5 e53e ddc5 23be be32 57bf
00000050: 1f3a bb3e 92e3 3a3f 1919 acbb 382b dd3e
00000060: 51b5 27bf 837b f93e 85bb 0dbf b355 893d
00000070: a5f9 30be 5b4a c33e 2f4b d8bd 350d 683e
00000080: ab86 cb3d f791 3ebe 5377 f4be 522b c7bd
00000090: a372 bd3e 138e fcbe 346d f1be 66ec 3dbd
000000a0: ac04 0dbe 42c8 a1be ea6c 1cbf 058d 9dbe
000000b0: 5154 f73e a501 513e 38ea d23c d837 be3d
000000c0: 72e7 c53b 485b d83d 24b0 c43e f56b a63e
000000d0: a12e eabc 4ce0 1e3e 74fa b1be 2d65 74be
000000e0: 60fd b7be 8cc8 c23e 8054 3e3f 1524 c4be
000000f0: 5ccc dabd e8a6 c9bd cf04 c3be 7209 30bf

get_operations.1.k_linear.bias f4 [8]
0.37599248 -0.23376964 0.31180096 0.015412568 0.21428524 0.15166804 0.019958805 -0.31452814
00000000: 1682 c03e 4f61 6fbe 60a4 9f3e ff84 7c3c
00000010: 976d 5b3e de4e 1b3e a680 a33c d509 a1be

get_operations.1.k_linear_dst.weight f4 [8, 8]
0.41814595 -0.05576038 -0.16857462 0.40212113 -0.60053873 -0.33495376 -0.22657497 -0.1321565
-0.20311095 -0.20815243 -0.06404649 -0.15762562 0.12346985 0.09958112 -0.5195805 -0.5215731
0.103945516 -0.08972484 0.5406726 -0.09836081 0.17344041 0.44886473 0.21684301 0.007446002
-0.370591 -0.21212909 0.2255736 -0.08247765 -0.28359324 0.122302815 0.45585665 -0.37235463
-0.43471313 -0.86273974 -0.34835735 -0.100326605 0.1685035 -0.037328135 0.7120239 -0.21402211
-0.9720181 0.058137283 -0.17379929 0.010180074 0.2553263 -0.70060074 -0.04560092 0.15542933
0.5002488 -0.19287436 -0.23960425 -0.77309585 -0.3699339 -0.26072556 0.5105126 -0.11195107
-0.24934757 0.22895147 1.3889592 -0.63980955 0.14524922 -0.4008441 -0.36563715 -0.23631102
00000000: 3a17 d63e ff64 64bd d39e 2cbe d2e2 cd3e
00000010: e8bc 19bf 0f7f abbe 4503 68be 0954 07be
00000020: 51fc 4fbe e925 55be ce2a 83bd 9c68 21be
00000030: c3dd fc3d 30f1 cb3d 3a03 05bf d185 05bf
00000040: 63e1 d43d a8c1 b7bd 8569 0a3f 6471 c9bd
00000050: 5d9a 313e 99d1 e53e 180c 5e3e 98fd f33b
00000060: 1bbe bdbe 5e38 59be c4fc 663e 0bea a8bd
00000070: 2233 91be e679 fa3d 0b66 e93e 44a5 bebe
00000080: b892 debe 83dc 5cbf e55b b2be 0978 cdbd
00000090: 2e8c 2c3e 63e5 18bd 3347 363f 9d28 5bbe
000000a0: 2ed6 78bf 5c21 6e3d 71f8 31be 53ca 263c
000000b0: 21ba 823e 925a 33bf 08c8 3abd de28 1f3e
000000c0: 4e10 003f db80 45be d15a 75be 9ce9 45bf
000000d0: fa67 bdbe d27d 85be f4b0 023f 9a46 e5bd
000000e0: f854 7fbe 4172 6a3e 6ac9 b13f 8fca 23bf
000000f0: 36bc 143e 703b cdbe cb34 bbbe 84fb 71be

get_operations.1.k_linear_dst.bias f4 [8]
-0.34406766 -0.06784755 0.0734277 -0.30170757 0.00666577 0.28616256 -0.3194608 0.31815687
00000000: a329 b0be a8f3 8abd 4361 963d 6a79 9abe
00000010: 886c da3b e683 923e 5e90 a3be 75e5 a23e

get_operations.1.k_linear_edge.weight f4 [8, 1]
0.13524361 0.19681957 0.14449248 -0.3412847 -0.6682343 -0.7581286 0.059669662 -0.07993807
00000000: 4d7d 0a3e 128b 493e d6f5 133e debc aebe
00000010: 6711 2bbf b714 42bf 2d68 743d 92b6 a3bd

get_operations.1.k_linear_edge.bias f4 [8]
-0.30197296 -0.19450907 0.27567193 0.75446075 0.86738825 -0.68868726 0.32083878 0.7327328
00000000: 339c 9abe 632d 47be df24 8d3e 5724 413f
00000010: 280d 5e3f cf4d 30bf fb44 a43e 6094 3b3f

get_operations.1.q_linear.weight f4 [8, 8]
-0.059234798 -0.34905574 0.21456154 0.23335038 -0.32590774 0.110510945 -0.088203125 -0.26166055
-0.45638326 -0.2932603 -0.8257838 0.47030592 -0.062654115 -0.48844144 -0.03352565 0.22302763
0.029109344 -0.02457086 0.46914858 -0.42694703 0.07315982 0.31516245 0.5825795 0.54096997
0.47933018 -0.06391001 -0.31347093 0.07538128 -0.1927372 -0.25241822 0.14390127 -0.13038394
0.15411311 -0.27553242 -0.8700252 -0.36217353 -0.38930708 -0.085969456 0.2883177 -0.2929779
0.26525608 0.14689763 -0.119872876 0.7093235 -0.3967684 -0.08587768 -0.09560422 -0.0075543416
0.41398945 0.3108662 0.2020431 0.38776594 0.07208705 -0.14751892 0.418591 0.1309208
0.6682868 0.7121086 0.79434174 -0.30424082 -0.59743065 -0.5036405 0.23593368 0.10170648
00000000: 30a0 72bd 6fb7 b2be 05b6 5b3e 67f3 6e3e
00000010: 61dd a6be 9053 e23d d7a3 b4bd 5ff8 85be
00000020: 11ab e9be 3726 96be 9166 53bf f0cb f03e
00000030: cd50 80bd ff14 fabe 3152 09bd 5b61 643e
00000040: b876 ee3c d448 c9bc 3e34 f03e cd98 dabe
00000050: d1d4 953d f95c a13e ee23 153f 027d 0a3f
00000060: c46a f53e 40e3 82bd 437f a0be 8061 9a3d
00000070: e75c 45be f63c 81be db5a 133e 5e83 05be
00000080: d4cf 1d3e 9612 8dbe f9b9 5ebf cf6e b9be
00000090: 4253 c7be c110 b0bd 619e 933e 3301 96be
000000a0: a5cf 873e 556c 163e e97f f5bd 3a96 353f
000000b0: 3a25 cbbe a3e0 afbd 25cc c3bd 698a f7bb
000000c0: 6df6 d33e db29 9f3e 63e4 4e3e 4289 c63e
000000d0: 60a2 933d 330f 17be 8f51 d63e 1a10 063e
000000e0: d814 2b3f c04c 363f fb59 4b3f 74c5 9bbe
000000f0: 37f1 18bf 95ee 00bf 9998 713e 7d4b d03d

get_operations.1.q_linear.bias f4 [8]
0.0007741248 -0.10479338 -0.017043736 0.06130055 0.28538048 0.2839168 0.2512608 -0.023094043
00000000: a3ee 4a3a e99d d6bd 4e9f 8bbc 4916 7b3d
00000010: 641d 923e 8b5d 913e 41a5 803e b82f bdbc

get_operations.1.v_linear.weight f4 [8, 8]
-0.2632555 0.2605537 -0.6251053 0.15744174 0.5339108 -0.032917503 -1.0795263 -0.17600393
0.018207816 -0.352723 -0.37218603 -0.04127693 0.48058444 0.2851885 -0.19512962 0.18159805
-0.027473556 0.417668 0.21964785 -0.586715 0.04302152 -0.46562737 0.42253685 0.3690445
-0.5330335 0.0767394 0.18966074 0.0970953 0.27308863 -0.066900834 0.08429931 -0.78948367
-0.13366006 -0.3597616 0.18518485 -0.24523076 -0.32608175 0.2529074 -0.228953 -0.47169924
-0.3218737 0.2492417 -0.02766824 0.036408275 0.081998244 0.02298537 0.016363163 -0.11802125
-0.13022341 -0.4219179 0.23741427 0.14224668 0.62523746 -0.060926795 0.12862715 -0.25448108
-0.40282503 0.01799877 0.37196216 -0.41693866 -0.1835859 -0.13235092 -0.9715485 -0.2436126
00000000: 6dc9 86be 4b67 853e e706 20bf 6838 213e
00000010: 61ae 083f 81d4 06bd eb2d 8abf 603a 34be
00000020: 8f28 953c 1c98 b4be 2b8f bebe 0012 29bd
00000030: 2a0f f63e 3a04 923e 0fd0 47be d7f4 393e
00000040: 3910 e1bc 95d8 d53e 5eeb 603e f432 16bf
00000050: 5537 303d b666 eebe c056 d83e 67f3 bc3e
00000060: e274 08bf 8c29 9d3d 6d36 423e e7d9 c63d
00000070: 46d2 8b3e 4e03 89bd 1ea5 ac3d 9a1b 4abf
00000080: 2fde 08be ac32 b8be 19a1 3d3e c61d 7bbe
00000090: 30f4 a6be 147d 813e a872 6abe 9082 f1be
000000a0: a1cc a4be 3739 7f3e 81a8 e2bc d820 153d
000000b0: b2ee a73d d14b bc3c 0a0c 863c 20b5 f1bd
000000c0: 4959 05be 9f05 d8be ba1c 733e 1da9 113e
000000d0: 900f 203f 608e 79bd d6b6 033e 584b 82be
000000e0: 153f cebe 2872 933c d371 be3e fc78 d5be
000000f0: f1fd 3bbe 0087 07be 67b7 78bf 9575 79be

get_operations.1.v_linear.bias f4 [8]
-0.13250026 -0.017438475 0.28378716 0.21748425 -0.14190789 0.28249758 -0.01703418 0.15002985
00000000: 26ae 07be 22db 8ebc 8d4c 913e 31b4 5e3e
00000010: 4d50 11be 86a3 903e 448b 8bbc 6da1 193e

get_operations.1.v_linear_dst.weight f4 [8, 8]
0.34472936 0.01184703 0.31254312 -0.3744138 -0.1983727 -0.20711534 0.2534989 0.61590445
0.15151581 -0.08708791 0.31740928 -0.17087224 0.4121107 -0.23412506 0.35383174 -0.005051961
-0.2561744 0.5389108 0.45440227 -0.6372115 0.17884086 -0.039826147 -0.4951899 0.20953238
0.32332668 0.41983238 0.061217967 0.36076254 0.6394476 0.7306232 0.11898604 -0.010676277
0.7061227 0.19529828 -0.45154968 0.13749242 0.567278 0.402359 -0.08575809 -0.3194118
-0.64110404 0.32313928 0.64889663 -0.14026158 0.14808461 -0.6795501 -0.21165894 -0.08898749
0.32418516 -0.42161393 0.07312738 0.14475328 -0.31761047 0.034205522 -0.19088502 0.16410565
0.25897524 0.6544009 -0.04804746 -0.48794848 -0.74610084 0.08622761 0.8839845 -0.64389205
00000000: 5e80 b03e 0c1a 423c a705 a03e 2ab3 bfbe
00000010: 3722 4bbe 0b16 54be 9cca 813e eaab 1d3f
00000020: f626 1b3e 255b b2bd 7883 a23e 22f9 2ebe
00000030: 2c00 d33e 7bbe 6fbe 6f29 b53e ec8a a5bb
00000040: 4a29 83be 0ff6 093f 6aa7 e83e 4b20 23bf
00000050: 0f22 373e be20 23bd 8889 fdbe a88f 563e
00000060: 138b a53e 45f4 d63e b1bf 7a3d deb5 b83e
00000070: d7b2 233f 1f0a 3b3f f4ae f33d 8deb 2ebc
00000080: 75c4 343f 46fc 473e 8531 e7be d0ca 0c3e
00000090: 2239 113f 0002 ce3e f0a1 afbd f289 a3be
000000a0: 651f 24bf 8372 a53e 171e 263f bba0 0fbe
000000b0: 7ea3 173e fff6 2dbf 1fbd 58be 133f b6bd
000000c0: 99fb a53e c8dd d7be cfc3 953d 343a 143e
000000d0: d79d a2be 171b 0c3d 5d77 43be 500b 283e
000000e0: 6798 843e d186 273f 6acd 44bd 62d4 f9be
000000f0: 7700 3fbf 1a98 b03d cf4c 623f 1cd6 24bf

get_operations.1.v_linear_dst.bias f4 [8]
-0.06288248 0.072289646 0.07110402 -0.22970684 -0.17639454 -0.22270706 0.011774669 0.2481143
00000000: 88c8 80bd 980c 943d fc9e 913d 4538 6bbe
00000010: c5a0 34be 520d 64be 8bea 403c ad11 7e3e

get_operations.1.a_linear.weight f4 [8, 8]
0.32616234 0.41368616 -0.20273548 -0.4138133 -0.27479458 -0.09742002 0.5337727 0.6368981
0.1465168 -0.40876222 0.34844628 0.040620428 -0.30935624 -0.0045519588 -0.5979148 -0.30717188
0.31750944 0.18244356 0.17587051 0.02427544 -0.13102761 -0.11665817 0.5143375 -0.43024093
0.17832154 0.23515351 -0.39240435 0.2902363 -0.2572402 0.25808087 -0.26100135 0.23406069
-0.7106403 -0.2373834 0.2599631 -0.17178194 0.31235468 0.9812242 0.21317482 -0.2503025
-0.29028615 0.2618613 0.59168327 -0.18055269 0.69085455 -0.04703865 0.4334272 0.16742453
-0.31467107 0.31784317 -0.101477765 -0.24688265 0.027339233 0.728056 -0.31036177 -0.35791972
0.52002406 0.14989966 0.4171798 0.55981886 0.20967378 -0.7457396 0.3294352 -0.09406164
00000000: c0fe a63e acce d33e e499 4fbe 56df d3be
00000010: e0b1 8cbe 2684 c7bd 54a5 083f c10b 233f
00000020: 8008 163e 4849 d1be 8d67 b23e 9b61 263d
00000030: f163 9ebe 9928 95bb f210 19bf a245 9dbe
00000040: 9990 a23e 7cd2 3a3e 6617 343e 4add c63c
00000050: 1a2c 06be 7bea eebd 9fab 033f 8a48 dcbe
00000060: ec99 363e 15cc 703e 39e9 c8be da99 943e
00000070: fdb4 83be 2d23 843e f8a1 85be 9bad 6f3e
00000080: 86ec 35bf a214 73be e219 853e 9be7 2fbe
00000090: f4ec 9f3e 8231 7b3f 804a 5a3e a627 80be
000000a0: 63a0 94be af12 863e 8e78 173f cee2 38be
000000b0: d8db 303f 99ab 40bd 2cea dd3e 5671 2b3e
000000c0: 911c a1be 57bc a23e 93d3 cfbd cece 7cbe
000000d0: 87f6 df3c e161 3a3f bde7 9ebe 4141 b7be
000000e0: 4c20 053f 4c7f 193e 9798 d53e 4a50 0f3f
000000f0: b9b4 563e cae8 3ebf bbab a83e 64a3 c0bd

get_operations.1.a_linear.bias f4 [8]
0.033485934 0.23827769 0.21808673 -0.011426947 0.02791129 -0.18744332 0.261675 -0.31096214
00000000: 8c28 093d 11ff 733e 2152 5f3e 1738 3bbc
00000010: 38a6 e43c 24f1 3fbe 44fa 853e 6e36 9fbe

get_operations.1.norms.weight f4 [8]
1.0 1.0 1.0 1.0 1.0 1.0 1.0 1.0
00000000: 0000 803f 0000 803f 0000 803f 0000 803f
00000010: 0000 803f 0000 803f 0000 803f 0000 803f

get_operations.1.norms.bias f4 [8]
0.0 0.0 0.0 0.0 0.0 0.0 0.0 0.0
00000000: 0000 0000 0000 0000 0000 0000 0000 0000
00000010: 0000 0000 0000 0000 0000 0000 0000 0000

get_operations.1.mid_linear.weight f4 [8, 8]
0.09319452 0.19572647 0.044060484 -0.022105241 0.22449991 0.31090066 -0.08674384 -0.1048366
-0.28117076 0.04781969 -0.32990676 -0.032694828 0.35073906 0.19599093 0.14500067 0.3208662
-0.14950064 0.08023976 -0.12104534 0.00030172928 0.083599746 0.03721655 -0.047545902 0.18505408
0.31619337 -0.03836733 -0.33986163 -0.30236143 -0.004545875 0.02070721 0.21548831 -0.21814738
-0.04231609 0.33655536 -0.08834057 0.27107954 -0.15751687 -0.22172034 -0.013005063 0.22011292
0.032940798 -0.27156645 0.018456232 -0.004540501 0.2171202 -0.27424297 0.06112987 -0.096333325
0.14270759 -0.27222925 -0.11841713 0.16610794 0.23694308 -0.07480103 0.19024707 0.1841923
0.086605616 0.004903575 -0.3021336 -0.11640921 -0.15099017 0.059162416 0.08602033 -0.20113987
00000000: c5dc be3d 856c 483e c478 343d 0d16 b5bc
00000010: 4ee3 653e 5f2e 9f3e c1a6 b1bd 92b4 d6bd
00000020: 9df5 8fbe 94de 433d 8ae9 a8be 03eb 05bd
00000030: 1294 b33e d9b1 483e 0e7b 143e 9348 a43e
00000040: b216 19be be54 a43d 9fe6 f7bd 6b31 9e39
00000050: 5836 ab3d 6270 183d 7ebf 42bd d17e 3d3e
00000060: 19e4 a13e 1027 1dbd 5802 aebe 1ecf 9abe
00000070: 90f5 94bb 2ba2 a93c f8a8 5c3e 0762 5fbe
00000080: a353 2dbd fc50 ac3e e7eb b4bd f0ca 8a3e
00000090: 1a4c 21be a80a 63be 3013 55bc 4865 613e
000000a0: eeec 063d c20a 8bbe 8631 973c 7cc8 94bb
000000b0: c254 5e3e 9369 8cbe 5163 7a3d 684a c5bd
000000c0: f021 123e a261 8bbe ae84 f2bd 3318 2a3e
000000d0: 35a1 723e 4831 99bd 21d0 423e e89c 3c3e
000000e0: 495e b13d 2bae a03b 41b1 9abe f467 eebd
000000f0: 2b9d 1abe 4a54 723d 6d2b b03d 9cf7 4dbe

get_operations.1.mid_linear.bias f4 [8]
-0.26480904 0.114309035 -0.18212388 0.15002212 -0.118476056 -0.26835343 0.2494958 0.24747933
00000000: 0d95 87be db1a ea3d af7e 3abe 669f 193e
00000010: 93a3 f2bd 9f65 89be d47b 7f3e 396b 7d3e

get_operations.1.out_linear.weight f4 [8, 8]
-0.22017807 -0.23626935 -0.25084272 -0.14489119 -0.34217447 0.27145317 -0.06589308 0.25328267
-0.2373917 0.02624362 -0.27539316 -0.23834923 -0.13352264 -0.103491396 0.24577226 -0.005357075
0.22018066 0.01898395 0.25837737 0.31718788 0.22558346 0.20035318 0.19970946 -0.21844107
0.14102373 0.17402405 0.2542261 -0.15617763 -0.005113129 0.2851461 0.32138517 -0.25183463
0.013554215 0.3298824 -0.09120405 -0.12333594 -0.006350982 0.021710642 -0.21596721 -0.0038351945
-0.20530248 -0.040234897 0.111785576 0.3067186 -0.022241166 0.13094111 0.31012055 -0.11625407
0.19212818 -0.061142873 -0.022081492 0.32040823 -0.2914145 0.19617571 0.05894869 0.053016942
-0.07796965 -0.17792258 -0.061750107 0.087901674 0.046716284 -0.3041712 -0.20718491 0.31452253
00000000: 5c76 61be 98f0 71be 756e 80be 5b5e 14be
00000010: 7e31 afbe e9fb 8a3e f3f2 86bd 44ae 813e
00000020: cf16 73be dcfc d63c 5500 8dbe d211 74be
00000030: 29ba 08be 4cf3 d3bd b9ab 7b3e 678a afbb
00000040: 0a77 613e 3b84 9b3c 0a4a 843e 7366 a23e
00000050: 5aff 663e 6229 4d3e a380 4c3e 04af 5fbe
00000060: 8668 103e 5c33 323e ec29 823e 07ed 1fbe
00000070: 098c a7bb abfe 913e 998c a43e 78f0 80be
00000080: 8012 5e3c 59e6 a83e 30c9 babd 8e97 fcbd
00000090: e61b d0bb 84da b13c 8226 5dbe e357 7bbb
000000a0: d03a 52be 59cd 24bd d6ef e43d 380a 9d3e
000000b0: 1b33 b6bc 6d15 063e 1fc8 9e3e 9d16 eebd
000000c0: 40bd 443e f370 7abd 3fe4 b4bc 8c0c a43e
000000d0: 4834 95be 49e2 483e 2e74 713d 4b28 593d
000000e0: 8dae 9fbd 5631 36be aeed 7cbd cb05 b43d
000000f0: 9359 3f3d 54bc 9bbe 4828 54be 1909 a13e

get_operations.1.out_linear.bias f4 [8]
0.067159064 0.12607251 -0.05775155 -0.1619458 -0.32407367 0.0043376694 -0.042931095 0.14556345
00000000: b18a 893d 2719 013e e48c 6cbd 1fd5 25be
00000010: fcec a5be 0223 8e3b 84d8 2fbd 960e 153e

get_operations.1.out_norm.weight f4 [8]
1.0 1.0 1.0 1.0 1.0 1.0 1.0 1.0
00000000: 0000 803f 0000 803f 0000 803f 0000 803f
00000010: 0000 803f 0000 803f 0000 803f 0000 803f

get_operations.1.out_norm.bias f4 [8]
0.0 0.0 0.0 0.0 0.0 0.0 0.0 0.0
00000000: 0000 0000 0000 0000 0000 0000 0000 0000
00000010: 0000 0000 0000 0000 0000 0000 0000 0000

actor.linears.0.weight f4 [64, 32]
0.112510264 -0.04887629 0.13722925 -0.151661 0.12920369 0.15683824 -0.07068985 -0.12399049
0.0730807 0.04781204 0.14029993 0.11483491 -0.03791211 0.039716218 -0.02019048 0.09236324
0.1697075 0.04468467 -0.11853966 -0.12294439 -0.05462347 -0.021062182 -0.18406945 0.093844585
0.026211303 0.05764281 -0.15478672 -0.11626363 -0.07710439 -0.12199185 -0.11753798 0.04194654
0.010018439 -0.16422081 0.05633101 -0.045132194 0.030116074 -0.1524837 -0.119307436 -0.053583447
-0.04723268 0.06488459 -0.11657731 0.03768396 0.13194172 0.10755409 -0.05859356 -0.10645055
0.032755125 -0.1906219 0.07313482 0.047252025 -0.03487016 0.17686348 -0.09991853 0.14069034
-0.101681896 -0.16304235 -0.13774495 0.06532291 0.123209156 -0.0692227 0.056089688 -0.048212964
0.1613799 -0.13426192 -0.17194834 -0.15977855 0.17814784 -0.10095934 -0.17443836 -0.12643158
-0.1648709 0.049548402 -0.15712085 -0.03439887 0.06465394 -0.012546806 0.12535787 -0.061664786
0.07826462 0.069450065 -0.019420609 -0.010828781 0.09115908 0.1064504 -0.06920955 0.075039566
0.10966722 0.08466308 0.08489158 0.0019492619 -0.072306305 -0.14591134 0.13753942 0.075844534
-0.008762471 0.09865964 0.19425079 -0.11584604 0.030229745 0.15429583 -0.11004167 -0.029351596
0.11829863 -0.13717267 0.11534482 0.16092183 -0.18971284 0.028114613 -0.18144268 -0.05259376
0.14273706 0.034394674 -0.14678524 -0.078503735 0.09181998 -0.06683617 0.0808009 -0.08590225
0.089285865 -0.06614686 0.11503175 -0.04892076 0.12671958 -0.029817782 -0.02942531 0.11152203
-0.0074129626 0.17292199 -0.14171477 0.13768514 0.099115886 0.07105851 -0.055896807 0.123379916
0.12613468 -0.17296311 0.003913763 0.17099479 -0.0024023876 0.1402183 0.057864137 0.08588642
0.107876875 -0.093532965 -0.17843422 -0.08009504 -0.031519867 -0.1152435 0.17074795 -0.0974223
-0.029236965 -0.1256854 0.0012515612 0.013867082 0.09037063 -0.021779831 0.006440093 0.10010562
-0.09713599 -0.07710998 -0.19093606 -0.16259973 0.13568558 -0.14517505 -0.03672688 -0.05659776
-0.071629055 -0.035204493 0.015693465 0.00017884439 -0.03500569 -0.039993152 -0.17139667 -0.11094268
-0.20612371 0.07662508 -0.06297682 0.20000605 0.01104889 0.10546166 0.03793438 0.08792697
0.095745526 0.14895943 0.1225701 0.12226845 0.052975785 0.107379645 0.040454313 0.14287895
-0.055309903 -0.14029612 -0.20400931 -0.13008866 0.0034562438 -0.15288147 -0.099493966 -0.051618166
-0.14110106 0.03640315 0.028092813 -0.061845027 -0.011796755 -0.124414526 0.012787376 -0.070639506
-0.12727755 0.09379073 0.08008902 0.18115287 -0.07746204 -0.072735876 0.104599155 0.13529545
0.0199094 -0.03993505 -0.0045821033 -0.14243625 -0.11502153 -0.07619701 -0.13065754 0.048806652
-0.11648068 0.19082972 -0.10471988 -0.15661842 -0.042300902 0.009768197 0.10000839 -0.026089687
0.047209274 0.06441058 -0.047078334 0.15278643 0.07535808 -0.084672384 0.054096296 -0.000754069
-0.18223941 0.20556496 -0.20838577 -0.035573166 0.012764335 -0.23420425 -0.0321095 -0.1871193
-0.072194554 0.049501486 -0.08125793 0.027828487 0.16212057 -0.2241939 0.034442045 -0.041089863
00000000: c86b e63d 8132 48bd d385 0c3e 054d 1bbe
00000010: f94d 043e 349a 203e d7c5 90bd baee fdbd
00000020: 56ab 953d 8fd6 433d c9aa 0f3e 912e eb3d
00000030: bb49 1bbd 79ad 223d 8166 a5bc f028 bd3d
00000040: cec7 2d3e 4607 373d ecc4 f2bd 45ca fbbd
00000050: dcbc 5fbd 998a acbc b47c 3cbe 9731 c03d
00000060: 16b9 d63c de1a 6c3d 6980 1ebe a01b eebd
00000070: e8e8 9dbd ddd6 f9bd c1b7 f0bd 23d0 2b3d
00000080: 6124 243c 8029 28be 58bb 663d 89dc 38bd
00000090: fcb5 f63c b024 1cbe 7557 f4bd 517a 5bbd
000000a0: 0e77 41bd 36e2 843d 16c0 eebd 7f5a 1a3d
000000b0: bb1b 073e 5245 dc3d cdff 6fbd bf02 dabd
000000c0: 3d2a 063d 6332 43be b5c7 953d 578b 413d
000000d0: 03d4 0ebd b31b 353e 16a2 ccbd 2111 103e
000000e0: 993e d0bd 93f4 26be 030d 0dbe 05c8 853d
000000f0: 1555 fc3d a2c4 8dbd 4dbe 653d f57a 45bd
00000100: c640 253e f57b 09be 3a13 30be fd9c 23be
00000110: 636c 363e c5c3 cebd f89f 32be 4877 01be
00000120: ebd3 28be 44f3 4a3d 4ae4 20be d4e5 0cbd
00000130: 4969 843d 1e91 4dbc d05d 003e 3794 7cbd
00000140: 3349 a03d d63b 8e3d f817 9fbc 336b 31bc
00000150: 9db1 ba3d ab02 da3d bdbd 8dbd 58ae 993d
00000160: 3599 e03d d663 ad3d a3db ad3d 607e ff3a
00000170: 5415 94bd c869 15be 22d7 0c3e 6154 9b3d
00000180: 7890 0fbc 110e ca3d aee9 463e b040 edbd
00000190: 5fa4 f73c baff 1d3e 875d e1bd c272 f0bc
000001a0: 8d46 f23d fe76 0cbe e839 ec3d b1c8 243e
000001b0: 1544 42be 9e50 e63c 1ccc 39be 8e6c 57bd
000001c0: aa29 123e 6ee1 0c3d df4e 16be 91c6 a0bd
000001d0: 1d0c bc3d 67e1 88bd f17a a53d 85ed afbd
000001e0: 82db b63d 0178 87bd c495 eb3d 2361 48bd
000001f0: c7c2 013e 6c44 f4bc 590d f1bc a965 e43d
00000200: 70e8 f2bb 7612 313e ad1d 11be 55fd 0c3e
00000210: 45fd ca3d 2087 913d 0df4 64bd 9cae fc3d
00000220: 7329 013e 3e1d 31be 063f 803b 4219 2f3e
00000230: 6071 1dbb 6395 0f3e f202 6d3d 38e5 af3d
00000240: 8dee dc3d 368e bfbd 76b7 36be de08 a4bd
00000250: fa1a 01bd c904 ecbd 8dd8 2e3e 5885 c7bd
00000260: 5c82 efbc acb3 00be 6d0b a43a c232 633c
00000270: 3d14 b93d 9e6b b2bc 6a07 d33b 2d04 cd3d
00000280: 3cef c6bd d6eb 9dbd be84 43be 8b80 26be
00000290: 29f1 0a3e c5a8 14be ed6e 16bd 0ed3 67bd
000002a0: 41b2 92bd 9632 10bd 958f 803c 2d88 3b39
000002b0: 2062 0fbd dccf 23bd 9c82 2fbe ea35 e3bd
000002c0: 1812 53be 9ced 9c3d fef9 80bd 63ce 4c3e
000002d0: 6706 353c 48fc d73d 1561 1b3d 0e13 b43d
000002e0: 3b16 c43d d288 183e 0806 fb3d e267 fa3d
000002f0: 23fd 583d dce9 db3d 6cb3 253d dc4e 123e
00000300: a38c 62bd c9a9 0fbe d1e7 50be f635 05be
00000310: 2682 623b f68c 1cbe 7ec3 cbbd 926d 53bd
00000320: cc7c 10be 781b 153d e622 e63c 3651 7dbd
00000330: 2d47 41bc 0bcd febd 2482 513c 72ab 90bd
00000340: 0c55 02be 5b15 c03d b605 a43d 2380 393e
00000350: 6ba4 9ebd 8cf6 94bd 1538 d63d e48a 0a3e
00000360: 0a19 a33c ef92 23bd 7825 96bb cfda 11be
00000370: 6890 ebbd 2e0d 9cbd 17cb 05be 7ce9 473d
00000380: 6c8d eebd de68 433e 6077 d6bd 9460 20be
00000390: b643 2dbd ca0a 203c 33d1 cc3d 0aba d5bc
000003a0: 835e 413d b2e9 833d 36d5 40bd 0c74 1c3e
000003b0: 5655 9a3d b768 adbd 1494 5d3d b7ac 45ba
000003c0: f89c 3abe 9f7f 523e 1463 55be 2bb5 11bd
000003d0: 8021 513c 3dd3 6fbe 4085 03bd 349c 3fbe
000003e0: bdda 93bd 12c2 4a3d 8f6a a6bd 91f8 e33c
000003f0: ef02 263e 1693 65be 1a13 0d3d d84d 28bd

actor.linears.0.bias f4 [64]
-0.09719418 0.016862962 0.10350339 0.09130581 0.13526723 -0.13700381 0.16098185 -0.007001874
0.022482812 0.08858141 0.015494541 -0.16853733 0.15577154 0.15271293 -0.052352548 0.05682528
0.13569239 0.04449653 0.037103623 0.021496397 -0.115210906 -0.14985043 -0.12932482 0.13755137
0.11855363 0.09142414 -0.033522986 -0.1437789 -0.17294592 0.04527067 0.12639768 0.06902578
-0.10851478 -0.028173203 -0.124520786 -0.00080824975 -0.03892389 -0.11896893 -0.14898296 -0.07325918
0.056934725 0.14463903 -0.12113076 0.07104736 0.13463068 -0.034999773 0.16805628 -0.022851152
0.099333815 0.12135731 -0.1326917 0.060372487 0.02571146 -0.1439911 -0.052617766 0.14147829
0.09001704 0.008883532 -0.1219535 0.07976923 -0.028315123 0.07106201 0.11230689 0.031910386
00000000: be0d c7bd 3224 8a3c 96f9 d33d 8afe ba3d
00000010: 7e83 0a3e ba4a 0cbe 6dd8 243e fa6f e5bb
00000020: e02d b83c 2c6a b53d d1dc 7d3c 0d95 2cbe
00000030: 9382 1f3e c760 1c3e a06f 56bd a0c1 683d
00000040: f2f2 0a3e fe41 363d f8f9 173d 3619 b03c
00000050: b2f3 ebbd 6472 19be ba6d 04be 44da 0c3e
00000060: 3fcc f23d 943c bb3d 664f 09bd c73a 13be
00000070: bc18 31be bd6d 393d 656e 013e 635d 8d3d
00000080: ff3c debd 7dcb e6bc c104 ffbd b9e0 53ba
00000090: a86e 1fbd fba5 f3bd fd8e 18be e908 96bd
000000a0: 6334 693d 411c 143e 6713 f8bd 4781 913d
000000b0: a0dc 093e ec5b 0fbd f216 2c3e 5732 bbbc
000000c0: 876f cb3d 2e8a f83d 55e0 07be 2449 773d
000000d0: d7a0 d23c 6772 13be ba85 57bd afdf 103e
000000e0: db5a b83d 3c8c 113c c2c2 f9bd 0d5e a33d
000000f0: 1ef5 e7bc f688 913d 2801 e63d 77b4 023d

actor.linears.1.weight f4 [64, 64]
0.10069133 0.022584274 -0.043663062 0.035703883 0.12054968 -0.045497764 -0.051711045 0.114968345
-0.09378271 -0.084266335 0.050970368 0.018265763 -0.072709434 0.014715859 0.0070429808 -0.048295278
-0.032712247 -0.08443483 0.06704476 -0.046585593 -0.08280656 -0.106708534 0.015042007 0.002574165
0.043033592 -0.09786933 0.033520106 -0.03830433 0.03445144 -0.12036705 -0.09993827 0.042785645
-0.0015482845 0.04367912 0.10734118 -0.04866149 -0.03811777 -0.09673105 -0.00901887 -0.060616918
0.028351935 -0.10077598 -0.0022938505 0.030476954 0.00015224438 0.03177739 -0.10104619 0.01177617
0.03518296 0.124683276 0.09423574 -0.0040793223 0.057818096 -0.08340501 0.061492458 -0.01322446
-0.07888579 -0.100741446 0.012653988 -0.04954677 -0.047885463 0.07241145 0.07294634 0.020958742
0.069917746 0.11057721 0.02818819 0.03666315 0.0296579 -0.011891574 0.074275784 0.044355307
-0.004934248 0.054598358 0.027588 0.114667505 0.02649463 0.09754553 -0.0001105843 -0.07292557
0.02308833 0.06524192 0.05283718 -0.06922049 0.049655814 0.041941788 -0.07988427 0.0546077
0.009424529 -0.019121697 -0.09582448 -0.12806804 0.0031941843 0.08372422 -0.11926254 -0.051009644
0.11132205 -0.057516977 -0.14538373 -0.003034917 -0.06350097 -0.026400834 -0.044594727 -0.10534863
0.084157825 0.015450302 0.04322655 0.022202449 -0.07063513 0.030051095 0.03618385 0.007157371
-0.017349074 -0.0752969 0.09249425 -0.055517577 0.06800505 0.0033514004 -0.06758997 0.02399057
-0.020204417 -0.10970267 0.07562894 0.13378233 -0.010116532 -0.056661107 -0.035872623 -0.030914538
-0.10038763 -0.08941002 0.03990902 0.04227625 -0.09869721 0.03763686 0.04454171 0.052934486
0.09710326 -0.13238718 -0.05561823 0.029064795 -0.045173816 0.04907846 -0.09108529 -0.092088535
0.09890861 0.007234694 0.030682763 0.054172177 0.08555001 0.066005796 -0.06320688 -0.06189502
0.09070702 -0.094074026 -0.019613741 -0.015757283 0.072890714 -0.021384124 0.06669698 -0.000746574
-0.059390325 -0.005591281 -0.13250491 -0.049708646 -0.13498613 -0.07933027 -0.041757762 -0.050711896
-0.051382117 0.09120839 -0.009408092 0.00953193 0.006119839 -0.07256116 -0.06529857 -0.10804971
-0.063675515 0.018175215 0.10605803 0.034875963 0.06954935 -0.029051155 0.02324908 -0.115592085
0.123694815 -0.116613284 -0.016471753 -0.05014496 -0.10403328 0.13224414 0.11320857 0.046550218
-0.08237572 -0.004609475 -0.10469807 -0.048123207 -0.057812504 -0.08630345 0.0747764 0.09385648
-0.12566094 0.027697127 0.115989365 0.06932265 -0.07683315 0.048808847 0.06388676 -0.087916896
-0.017930683 -0.019018365 0.035905156 -0.0017286272 -0.05412094 0.077194676 0.092819035 0.051429037
0.07382512 0.08685001 0.08865937 -0.009366965 0.040415343 -0.027289728 0.010305089 0.043561254
0.084879674 0.11417989 -0.04235385 0.08598601 0.14241947 -0.015118048 -0.023288744 -0.093699925
-0.0039015308 0.0072374498 0.06819885 -0.053213928 -0.109038 0.0454049 0.115336284 0.12261362
-0.0011727383 -0.09013116 -0.07974624 0.043557208 -0.06255768 -0.0038605393 0.10442648 -0.026978323
-0.04812118 0.008494386 -0.018644607 -0.099822976 -0.08002508 -0.06352163 -0.0076376703 0.103816435
00000000: 4237 ce3d a802 b93c 0ad8 32bd 3c3e 123d
00000010: c0e2 f63d dd5b 3abd f6ce 53bd 8674 eb3d
00000020: 2611 c0bd d493 acbd 4ec6 503d 15a2 953c
00000030: afe8 94bd c91a 713c cec8 e63b 45d1 45bd
00000040: 47fd 05bd 2bec acbd c34e 893d 89d0 3ebd
00000050: 7c96 a9bd 018a dabd c072 763c 52b3 283b
00000060: fe43 303d b76f c8bd 614c 093d 00e5 1cbd
00000070: f41c 0d3d 0083 f6bd 70ac ccbd 0040 2f3d
00000080: cfef caba e0e8 323d b1d5 db3d 4551 47bd
00000090: 6121 1cbd ee1a c6bd e2c3 13bc 7249 78bd
000000a0: 5142 e83c a363 cebd 6d54 16bb ceaa f93c
000000b0: caa3 1f39 0229 023d 4ef1 cebd d6f0 403c
000000c0: 021c 103d f259 ff3d abfe c03d d6ab 85bb
000000d0: abd2 6c3d 3fd0 aabd 84df 7b3d 68ab 58bc
000000e0: e08e a1bd 8851 cebd ac52 4f3c 8ef1 4abd
000000f0: 8c23 44bd 744c 943d e464 953d abb1 ab3c
00000100: 0931 8f3d 4e76 e23d ebea e63c 192c 163d
00000110: 20f5 f23c e0d4 42bc e71d 983d e9ad 353d
00000120: 79af a1bb 87a2 5f3d 3b00 e23c ccd6 ea3d
00000130: 440b d93c f3c5 c73d 7ee9 e7b8 005a 95bd
00000140: bd23 bd3c 8e9d 853d cd6b 583d 79c3 8dbd
00000150: e563 4b3d 27cb 2b3d 5d9a a3bd 53ac 5f3d
00000160: 5769 1a3c 1ba5 9cbc a03f c4bd 4524 03be
00000170: 8555 513b 9b77 ab3d eb3f f4bd 7def 50bd
00000180: d1fc e33d ec96 6bbd 79df 14be 75e5 46bb
00000190: cc0c 82bd 9046 d8bc f6a8 36bd 06c1 d7bd
000001a0: f05a ac3d 4323 7d3c 530e 313d e9e1 b53c
000001b0: 27a9 90bd b72d f63c 8435 143d 6188 ea3b
000001c0: a51f 8ebc 4335 9abd a06d bd3d 6666 63bd
000001d0: 3b46 8b3d 2ba3 5b3b 9c6c 8abd df87 c43c
000001e0: bc83 a5bc cbab e0bd 58e3 9a3d 3cfe 083e
000001f0: d0bf 25bc 7a15 68bd 2cef 12bd 7c40 fdbc
00000200: 0898 cdbd 9a1c b7bd a477 233d dc29 2d3d
00000210: c321 cabd 1c29 1a3d 5e71 363d d5d1 583d
00000220: 13de c63d 8190 07be f1cf 63bd 4b19 ee3c
00000230: 2e08 39bd 7f06 493d ed8a babd ea98 bcbd
00000240: 9990 ca3d 0311 ed3b 6b5a fb3c a5e3 5d3d
00000250: d834 af3d 0c2e 873d 9c72 81bd a285 7dbd
00000260: 9ac4 b93d e2a9 c0bd ffac a0bc 6b15 81bc
00000270: ba47 953d c22d afbc 6d98 883d bcb5 43ba
00000280: 4543 73bd 1137 b7bb 5eaf 07be 4b9b 4bbd
00000290: ce39 0abe e977 a2bd 300a 2bbd 47b7 4fbd
000002a0: 0e76 52bd 77cb ba3d 6624 1abc d02b 1c3c
000002b0: ee88 c83b f29a 94bd 42bb 85bd 2b49 ddbd
000002c0: 4f68 82bd 30e4 943c f434 d93d 19da 0e3d
000002d0: e46f 8e3d b0fc edbc db74 be3c 8bbb ecbd
000002e0: b553 fd3d f2d2 eebd c5ef 86bc cd64 4dbd
000002f0: 660f d5bd 026b 073e e5d9 e73d 71ab 3e3d
00000300: 9ab4 a8bd 140b 97bb f16b d6bd d71c 45bd
00000310: cecc 6cbd ddbf b0bd 5f24 993d d437 c03d
00000320: 43ad 00be 16e5 e23c d58b ed3d 09f9 8d3d
00000330: b35a 9dbd c9eb 473d 10d7 823d c60d b4bd
00000340: 5ee3 92bc 67cc 9bbc 4911 133d 1b93 e2ba
00000350: ebad 5dbd 3e18 9e3d e817 be3d 41a7 523d
00000360: a031 973d 6bde b13d 0b93 b53d e677 19bc
00000370: 8f8a 253d b58e dfbc add6 283c 496d 323d
00000380: 65d5 ad3d 25d7 e93d 3b7b 2dbd 6f19 b03d
00000390: 69d6 113e b0b1 77bc 09c8 bebc bfe5 bfbd
000003a0: d3b0 7fbb 2128 ed3b d7ab 8b3d d9f6 59bd
000003b0: 514f dfbd 7dfa 393d 6e35 ec3d d91c fb3d
000003c0: 91b6 99ba b096 b8bd ff51 a3bd 0b69 323d
000003d0: 3e1e 80bd 1a01 7dbb 8ddd d53d a501 ddbc
000003e0: b71a 45bd 0a2c 0b3c 93bc 98bc fd6f ccbd
000003f0: 30e4 a3bd a117 82bd 6c45 fabb b69d d43d
